<?xml version="1.0"?>
<net name="human-pose-estimation-0001" version="6" batch="1">
	<layers>
		<layer name="data" type="Input" precision="FP32" id="0">
			<output>
				<port id="0">
					<dim>1</dim>
					<dim>3</dim>
					<dim>256</dim>
					<dim>456</dim>
				</port>
			</output>
		</layer>
		<layer name="Mul_/Fused_Mul_/FusedScaleShift_" type="ScaleShift" precision="FP32" id="1">
			<data broadcast="0" />
			<input>
				<port id="0">
					<dim>1</dim>
					<dim>3</dim>
					<dim>256</dim>
					<dim>456</dim>
				</port>
			</input>
			<output>
				<port id="1">
					<dim>1</dim>
					<dim>3</dim>
					<dim>256</dim>
					<dim>456</dim>
				</port>
			</output>
			<blobs>
				<biases offset="0" size="12" />
				<weights offset="12" size="12" />
			</blobs>
		</layer>
		<layer name="conv1" type="Convolution" precision="FP32" id="2">
			<data dilations="1,1" group="1" kernel="3,3" output="32" pads_begin="1,1" pads_end="1,1" quantization_level="I8" strides="2,2" />
			<input>
				<port id="0">
					<dim>1</dim>
					<dim>3</dim>
					<dim>256</dim>
					<dim>456</dim>
				</port>
			</input>
			<output>
				<port id="1">
					<dim>1</dim>
					<dim>32</dim>
					<dim>128</dim>
					<dim>228</dim>
				</port>
			</output>
			<blobs>
				<biases offset="24" size="128" />
				<weights offset="152" size="3456" />
			</blobs>
		</layer>
		<layer name="relu1" type="ReLU" precision="FP32" id="3">
			<input>
				<port id="0">
					<dim>1</dim>
					<dim>32</dim>
					<dim>128</dim>
					<dim>228</dim>
				</port>
			</input>
			<output>
				<port id="1">
					<dim>1</dim>
					<dim>32</dim>
					<dim>128</dim>
					<dim>228</dim>
				</port>
			</output>
		</layer>
		<layer name="conv2_1/dw" type="Convolution" precision="FP32" id="4">
			<data dilations="1,1" group="32" kernel="3,3" output="32" pads_begin="1,1" pads_end="1,1" quantization_level="I8" strides="1,1" />
			<input>
				<port id="0">
					<dim>1</dim>
					<dim>32</dim>
					<dim>128</dim>
					<dim>228</dim>
				</port>
			</input>
			<output>
				<port id="1">
					<dim>1</dim>
					<dim>32</dim>
					<dim>128</dim>
					<dim>228</dim>
				</port>
			</output>
			<blobs>
				<biases offset="3608" size="128" />
				<weights offset="3736" size="1152" />
			</blobs>
		</layer>
		<layer name="relu2_1/dw" type="ReLU" precision="FP32" id="5">
			<input>
				<port id="0">
					<dim>1</dim>
					<dim>32</dim>
					<dim>128</dim>
					<dim>228</dim>
				</port>
			</input>
			<output>
				<port id="1">
					<dim>1</dim>
					<dim>32</dim>
					<dim>128</dim>
					<dim>228</dim>
				</port>
			</output>
		</layer>
		<layer name="conv2_1/sep" type="Convolution" precision="FP32" id="6">
			<data dilations="1,1" group="1" kernel="1,1" output="64" pads_begin="0,0" pads_end="0,0" quantization_level="I8" strides="1,1" />
			<input>
				<port id="0">
					<dim>1</dim>
					<dim>32</dim>
					<dim>128</dim>
					<dim>228</dim>
				</port>
			</input>
			<output>
				<port id="1">
					<dim>1</dim>
					<dim>64</dim>
					<dim>128</dim>
					<dim>228</dim>
				</port>
			</output>
			<blobs>
				<biases offset="4888" size="256" />
				<weights offset="5144" size="8192" />
			</blobs>
		</layer>
		<layer name="relu2_1/sep" type="ReLU" precision="FP32" id="7">
			<input>
				<port id="0">
					<dim>1</dim>
					<dim>64</dim>
					<dim>128</dim>
					<dim>228</dim>
				</port>
			</input>
			<output>
				<port id="1">
					<dim>1</dim>
					<dim>64</dim>
					<dim>128</dim>
					<dim>228</dim>
				</port>
			</output>
		</layer>
		<layer name="conv2_2/dw" type="Convolution" precision="FP32" id="8">
			<data dilations="1,1" group="64" kernel="3,3" output="64" pads_begin="1,1" pads_end="1,1" quantization_level="I8" strides="2,2" />
			<input>
				<port id="0">
					<dim>1</dim>
					<dim>64</dim>
					<dim>128</dim>
					<dim>228</dim>
				</port>
			</input>
			<output>
				<port id="1">
					<dim>1</dim>
					<dim>64</dim>
					<dim>64</dim>
					<dim>114</dim>
				</port>
			</output>
			<blobs>
				<biases offset="13336" size="256" />
				<weights offset="13592" size="2304" />
			</blobs>
		</layer>
		<layer name="relu2_2/dw" type="ReLU" precision="FP32" id="9">
			<input>
				<port id="0">
					<dim>1</dim>
					<dim>64</dim>
					<dim>64</dim>
					<dim>114</dim>
				</port>
			</input>
			<output>
				<port id="1">
					<dim>1</dim>
					<dim>64</dim>
					<dim>64</dim>
					<dim>114</dim>
				</port>
			</output>
		</layer>
		<layer name="conv2_2/sep" type="Convolution" precision="FP32" id="10">
			<data dilations="1,1" group="1" kernel="1,1" output="128" pads_begin="0,0" pads_end="0,0" quantization_level="I8" strides="1,1" />
			<input>
				<port id="0">
					<dim>1</dim>
					<dim>64</dim>
					<dim>64</dim>
					<dim>114</dim>
				</port>
			</input>
			<output>
				<port id="1">
					<dim>1</dim>
					<dim>128</dim>
					<dim>64</dim>
					<dim>114</dim>
				</port>
			</output>
			<blobs>
				<biases offset="15896" size="512" />
				<weights offset="16408" size="32768" />
			</blobs>
		</layer>
		<layer name="relu2_2/sep" type="ReLU" precision="FP32" id="11">
			<input>
				<port id="0">
					<dim>1</dim>
					<dim>128</dim>
					<dim>64</dim>
					<dim>114</dim>
				</port>
			</input>
			<output>
				<port id="1">
					<dim>1</dim>
					<dim>128</dim>
					<dim>64</dim>
					<dim>114</dim>
				</port>
			</output>
		</layer>
		<layer name="conv3_1/dw" type="Convolution" precision="FP32" id="12">
			<data dilations="1,1" group="128" kernel="3,3" output="128" pads_begin="1,1" pads_end="1,1" quantization_level="I8" strides="1,1" />
			<input>
				<port id="0">
					<dim>1</dim>
					<dim>128</dim>
					<dim>64</dim>
					<dim>114</dim>
				</port>
			</input>
			<output>
				<port id="1">
					<dim>1</dim>
					<dim>128</dim>
					<dim>64</dim>
					<dim>114</dim>
				</port>
			</output>
			<blobs>
				<biases offset="49176" size="512" />
				<weights offset="49688" size="4608" />
			</blobs>
		</layer>
		<layer name="relu3_1/dw" type="ReLU" precision="FP32" id="13">
			<input>
				<port id="0">
					<dim>1</dim>
					<dim>128</dim>
					<dim>64</dim>
					<dim>114</dim>
				</port>
			</input>
			<output>
				<port id="1">
					<dim>1</dim>
					<dim>128</dim>
					<dim>64</dim>
					<dim>114</dim>
				</port>
			</output>
		</layer>
		<layer name="conv3_1/sep" type="Convolution" precision="FP32" id="14">
			<data dilations="1,1" group="1" kernel="1,1" output="128" pads_begin="0,0" pads_end="0,0" quantization_level="I8" strides="1,1" />
			<input>
				<port id="0">
					<dim>1</dim>
					<dim>128</dim>
					<dim>64</dim>
					<dim>114</dim>
				</port>
			</input>
			<output>
				<port id="1">
					<dim>1</dim>
					<dim>128</dim>
					<dim>64</dim>
					<dim>114</dim>
				</port>
			</output>
			<blobs>
				<biases offset="54296" size="512" />
				<weights offset="54808" size="65536" />
			</blobs>
		</layer>
		<layer name="relu3_1/sep" type="ReLU" precision="FP32" id="15">
			<input>
				<port id="0">
					<dim>1</dim>
					<dim>128</dim>
					<dim>64</dim>
					<dim>114</dim>
				</port>
			</input>
			<output>
				<port id="1">
					<dim>1</dim>
					<dim>128</dim>
					<dim>64</dim>
					<dim>114</dim>
				</port>
			</output>
		</layer>
		<layer name="conv3_2/dw" type="Convolution" precision="FP32" id="16">
			<data dilations="1,1" group="128" kernel="3,3" output="128" pads_begin="1,1" pads_end="1,1" quantization_level="I8" strides="2,2" />
			<input>
				<port id="0">
					<dim>1</dim>
					<dim>128</dim>
					<dim>64</dim>
					<dim>114</dim>
				</port>
			</input>
			<output>
				<port id="1">
					<dim>1</dim>
					<dim>128</dim>
					<dim>32</dim>
					<dim>57</dim>
				</port>
			</output>
			<blobs>
				<biases offset="120344" size="512" />
				<weights offset="120856" size="4608" />
			</blobs>
		</layer>
		<layer name="relu3_2/dw" type="ReLU" precision="FP32" id="17">
			<input>
				<port id="0">
					<dim>1</dim>
					<dim>128</dim>
					<dim>32</dim>
					<dim>57</dim>
				</port>
			</input>
			<output>
				<port id="1">
					<dim>1</dim>
					<dim>128</dim>
					<dim>32</dim>
					<dim>57</dim>
				</port>
			</output>
		</layer>
		<layer name="conv3_2/sep" type="Convolution" precision="FP32" id="18">
			<data dilations="1,1" group="1" kernel="1,1" output="256" pads_begin="0,0" pads_end="0,0" quantization_level="I8" strides="1,1" />
			<input>
				<port id="0">
					<dim>1</dim>
					<dim>128</dim>
					<dim>32</dim>
					<dim>57</dim>
				</port>
			</input>
			<output>
				<port id="1">
					<dim>1</dim>
					<dim>256</dim>
					<dim>32</dim>
					<dim>57</dim>
				</port>
			</output>
			<blobs>
				<biases offset="125464" size="1024" />
				<weights offset="126488" size="131072" />
			</blobs>
		</layer>
		<layer name="relu3_2/sep" type="ReLU" precision="FP32" id="19">
			<input>
				<port id="0">
					<dim>1</dim>
					<dim>256</dim>
					<dim>32</dim>
					<dim>57</dim>
				</port>
			</input>
			<output>
				<port id="1">
					<dim>1</dim>
					<dim>256</dim>
					<dim>32</dim>
					<dim>57</dim>
				</port>
			</output>
		</layer>
		<layer name="conv4_1/dw" type="Convolution" precision="FP32" id="20">
			<data dilations="1,1" group="256" kernel="3,3" output="256" pads_begin="1,1" pads_end="1,1" quantization_level="I8" strides="1,1" />
			<input>
				<port id="0">
					<dim>1</dim>
					<dim>256</dim>
					<dim>32</dim>
					<dim>57</dim>
				</port>
			</input>
			<output>
				<port id="1">
					<dim>1</dim>
					<dim>256</dim>
					<dim>32</dim>
					<dim>57</dim>
				</port>
			</output>
			<blobs>
				<biases offset="257560" size="1024" />
				<weights offset="258584" size="9216" />
			</blobs>
		</layer>
		<layer name="relu4_1/dw" type="ReLU" precision="FP32" id="21">
			<input>
				<port id="0">
					<dim>1</dim>
					<dim>256</dim>
					<dim>32</dim>
					<dim>57</dim>
				</port>
			</input>
			<output>
				<port id="1">
					<dim>1</dim>
					<dim>256</dim>
					<dim>32</dim>
					<dim>57</dim>
				</port>
			</output>
		</layer>
		<layer name="conv4_1/sep" type="Convolution" precision="FP32" id="22">
			<data dilations="1,1" group="1" kernel="1,1" output="256" pads_begin="0,0" pads_end="0,0" quantization_level="I8" strides="1,1" />
			<input>
				<port id="0">
					<dim>1</dim>
					<dim>256</dim>
					<dim>32</dim>
					<dim>57</dim>
				</port>
			</input>
			<output>
				<port id="1">
					<dim>1</dim>
					<dim>256</dim>
					<dim>32</dim>
					<dim>57</dim>
				</port>
			</output>
			<blobs>
				<biases offset="267800" size="1024" />
				<weights offset="268824" size="262144" />
			</blobs>
		</layer>
		<layer name="relu4_1/sep" type="ReLU" precision="FP32" id="23">
			<input>
				<port id="0">
					<dim>1</dim>
					<dim>256</dim>
					<dim>32</dim>
					<dim>57</dim>
				</port>
			</input>
			<output>
				<port id="1">
					<dim>1</dim>
					<dim>256</dim>
					<dim>32</dim>
					<dim>57</dim>
				</port>
			</output>
		</layer>
		<layer name="conv4_2/dw" type="Convolution" precision="FP32" id="24">
			<data dilations="1,1" group="256" kernel="3,3" output="256" pads_begin="1,1" pads_end="1,1" quantization_level="I8" strides="1,1" />
			<input>
				<port id="0">
					<dim>1</dim>
					<dim>256</dim>
					<dim>32</dim>
					<dim>57</dim>
				</port>
			</input>
			<output>
				<port id="1">
					<dim>1</dim>
					<dim>256</dim>
					<dim>32</dim>
					<dim>57</dim>
				</port>
			</output>
			<blobs>
				<biases offset="530968" size="1024" />
				<weights offset="531992" size="9216" />
			</blobs>
		</layer>
		<layer name="relu4_2/dw" type="ReLU" precision="FP32" id="25">
			<input>
				<port id="0">
					<dim>1</dim>
					<dim>256</dim>
					<dim>32</dim>
					<dim>57</dim>
				</port>
			</input>
			<output>
				<port id="1">
					<dim>1</dim>
					<dim>256</dim>
					<dim>32</dim>
					<dim>57</dim>
				</port>
			</output>
		</layer>
		<layer name="conv4_2/sep" type="Convolution" precision="FP32" id="26">
			<data dilations="1,1" group="1" kernel="1,1" output="512" pads_begin="0,0" pads_end="0,0" quantization_level="I8" strides="1,1" />
			<input>
				<port id="0">
					<dim>1</dim>
					<dim>256</dim>
					<dim>32</dim>
					<dim>57</dim>
				</port>
			</input>
			<output>
				<port id="1">
					<dim>1</dim>
					<dim>512</dim>
					<dim>32</dim>
					<dim>57</dim>
				</port>
			</output>
			<blobs>
				<biases offset="541208" size="2048" />
				<weights offset="543256" size="524288" />
			</blobs>
		</layer>
		<layer name="relu4_2/sep" type="ReLU" precision="FP32" id="27">
			<input>
				<port id="0">
					<dim>1</dim>
					<dim>512</dim>
					<dim>32</dim>
					<dim>57</dim>
				</port>
			</input>
			<output>
				<port id="1">
					<dim>1</dim>
					<dim>512</dim>
					<dim>32</dim>
					<dim>57</dim>
				</port>
			</output>
		</layer>
		<layer name="conv5_1/dw" type="Convolution" precision="FP32" id="28">
			<data dilations="2,2" group="512" kernel="3,3" output="512" pads_begin="2,2" pads_end="2,2" quantization_level="I8" strides="1,1" />
			<input>
				<port id="0">
					<dim>1</dim>
					<dim>512</dim>
					<dim>32</dim>
					<dim>57</dim>
				</port>
			</input>
			<output>
				<port id="1">
					<dim>1</dim>
					<dim>512</dim>
					<dim>32</dim>
					<dim>57</dim>
				</port>
			</output>
			<blobs>
				<biases offset="1067544" size="2048" />
				<weights offset="1069592" size="18432" />
			</blobs>
		</layer>
		<layer name="relu5_1/dw" type="ReLU" precision="FP32" id="29">
			<input>
				<port id="0">
					<dim>1</dim>
					<dim>512</dim>
					<dim>32</dim>
					<dim>57</dim>
				</port>
			</input>
			<output>
				<port id="1">
					<dim>1</dim>
					<dim>512</dim>
					<dim>32</dim>
					<dim>57</dim>
				</port>
			</output>
		</layer>
		<layer name="conv5_1/sep" type="Convolution" precision="FP32" id="30">
			<data dilations="1,1" group="1" kernel="1,1" output="512" pads_begin="0,0" pads_end="0,0" quantization_level="I8" strides="1,1" />
			<input>
				<port id="0">
					<dim>1</dim>
					<dim>512</dim>
					<dim>32</dim>
					<dim>57</dim>
				</port>
			</input>
			<output>
				<port id="1">
					<dim>1</dim>
					<dim>512</dim>
					<dim>32</dim>
					<dim>57</dim>
				</port>
			</output>
			<blobs>
				<biases offset="1088024" size="2048" />
				<weights offset="1090072" size="1048576" />
			</blobs>
		</layer>
		<layer name="relu5_1/sep" type="ReLU" precision="FP32" id="31">
			<input>
				<port id="0">
					<dim>1</dim>
					<dim>512</dim>
					<dim>32</dim>
					<dim>57</dim>
				</port>
			</input>
			<output>
				<port id="1">
					<dim>1</dim>
					<dim>512</dim>
					<dim>32</dim>
					<dim>57</dim>
				</port>
			</output>
		</layer>
		<layer name="conv5_2/dw" type="Convolution" precision="FP32" id="32">
			<data dilations="1,1" group="512" kernel="3,3" output="512" pads_begin="1,1" pads_end="1,1" quantization_level="I8" strides="1,1" />
			<input>
				<port id="0">
					<dim>1</dim>
					<dim>512</dim>
					<dim>32</dim>
					<dim>57</dim>
				</port>
			</input>
			<output>
				<port id="1">
					<dim>1</dim>
					<dim>512</dim>
					<dim>32</dim>
					<dim>57</dim>
				</port>
			</output>
			<blobs>
				<biases offset="2138648" size="2048" />
				<weights offset="2140696" size="18432" />
			</blobs>
		</layer>
		<layer name="relu5_2/dw" type="ReLU" precision="FP32" id="33">
			<input>
				<port id="0">
					<dim>1</dim>
					<dim>512</dim>
					<dim>32</dim>
					<dim>57</dim>
				</port>
			</input>
			<output>
				<port id="1">
					<dim>1</dim>
					<dim>512</dim>
					<dim>32</dim>
					<dim>57</dim>
				</port>
			</output>
		</layer>
		<layer name="conv5_2/sep" type="Convolution" precision="FP32" id="34">
			<data dilations="1,1" group="1" kernel="1,1" output="512" pads_begin="0,0" pads_end="0,0" quantization_level="I8" strides="1,1" />
			<input>
				<port id="0">
					<dim>1</dim>
					<dim>512</dim>
					<dim>32</dim>
					<dim>57</dim>
				</port>
			</input>
			<output>
				<port id="1">
					<dim>1</dim>
					<dim>512</dim>
					<dim>32</dim>
					<dim>57</dim>
				</port>
			</output>
			<blobs>
				<biases offset="2159128" size="2048" />
				<weights offset="2161176" size="1048576" />
			</blobs>
		</layer>
		<layer name="relu5_2/sep" type="ReLU" precision="FP32" id="35">
			<input>
				<port id="0">
					<dim>1</dim>
					<dim>512</dim>
					<dim>32</dim>
					<dim>57</dim>
				</port>
			</input>
			<output>
				<port id="1">
					<dim>1</dim>
					<dim>512</dim>
					<dim>32</dim>
					<dim>57</dim>
				</port>
			</output>
		</layer>
		<layer name="conv5_3/dw" type="Convolution" precision="FP32" id="36">
			<data dilations="1,1" group="512" kernel="3,3" output="512" pads_begin="1,1" pads_end="1,1" quantization_level="I8" strides="1,1" />
			<input>
				<port id="0">
					<dim>1</dim>
					<dim>512</dim>
					<dim>32</dim>
					<dim>57</dim>
				</port>
			</input>
			<output>
				<port id="1">
					<dim>1</dim>
					<dim>512</dim>
					<dim>32</dim>
					<dim>57</dim>
				</port>
			</output>
			<blobs>
				<biases offset="3209752" size="2048" />
				<weights offset="3211800" size="18432" />
			</blobs>
		</layer>
		<layer name="relu5_3/dw" type="ReLU" precision="FP32" id="37">
			<input>
				<port id="0">
					<dim>1</dim>
					<dim>512</dim>
					<dim>32</dim>
					<dim>57</dim>
				</port>
			</input>
			<output>
				<port id="1">
					<dim>1</dim>
					<dim>512</dim>
					<dim>32</dim>
					<dim>57</dim>
				</port>
			</output>
		</layer>
		<layer name="conv5_3/sep" type="Convolution" precision="FP32" id="38">
			<data dilations="1,1" group="1" kernel="1,1" output="512" pads_begin="0,0" pads_end="0,0" quantization_level="I8" strides="1,1" />
			<input>
				<port id="0">
					<dim>1</dim>
					<dim>512</dim>
					<dim>32</dim>
					<dim>57</dim>
				</port>
			</input>
			<output>
				<port id="1">
					<dim>1</dim>
					<dim>512</dim>
					<dim>32</dim>
					<dim>57</dim>
				</port>
			</output>
			<blobs>
				<biases offset="3230232" size="2048" />
				<weights offset="3232280" size="1048576" />
			</blobs>
		</layer>
		<layer name="relu5_3/sep" type="ReLU" precision="FP32" id="39">
			<input>
				<port id="0">
					<dim>1</dim>
					<dim>512</dim>
					<dim>32</dim>
					<dim>57</dim>
				</port>
			</input>
			<output>
				<port id="1">
					<dim>1</dim>
					<dim>512</dim>
					<dim>32</dim>
					<dim>57</dim>
				</port>
			</output>
		</layer>
		<layer name="conv5_4/dw" type="Convolution" precision="FP32" id="40">
			<data dilations="1,1" group="512" kernel="3,3" output="512" pads_begin="1,1" pads_end="1,1" quantization_level="I8" strides="1,1" />
			<input>
				<port id="0">
					<dim>1</dim>
					<dim>512</dim>
					<dim>32</dim>
					<dim>57</dim>
				</port>
			</input>
			<output>
				<port id="1">
					<dim>1</dim>
					<dim>512</dim>
					<dim>32</dim>
					<dim>57</dim>
				</port>
			</output>
			<blobs>
				<biases offset="4280856" size="2048" />
				<weights offset="4282904" size="18432" />
			</blobs>
		</layer>
		<layer name="relu5_4/dw" type="ReLU" precision="FP32" id="41">
			<input>
				<port id="0">
					<dim>1</dim>
					<dim>512</dim>
					<dim>32</dim>
					<dim>57</dim>
				</port>
			</input>
			<output>
				<port id="1">
					<dim>1</dim>
					<dim>512</dim>
					<dim>32</dim>
					<dim>57</dim>
				</port>
			</output>
		</layer>
		<layer name="conv5_4/sep" type="Convolution" precision="FP32" id="42">
			<data dilations="1,1" group="1" kernel="1,1" output="512" pads_begin="0,0" pads_end="0,0" quantization_level="I8" strides="1,1" />
			<input>
				<port id="0">
					<dim>1</dim>
					<dim>512</dim>
					<dim>32</dim>
					<dim>57</dim>
				</port>
			</input>
			<output>
				<port id="1">
					<dim>1</dim>
					<dim>512</dim>
					<dim>32</dim>
					<dim>57</dim>
				</port>
			</output>
			<blobs>
				<biases offset="4301336" size="2048" />
				<weights offset="4303384" size="1048576" />
			</blobs>
		</layer>
		<layer name="relu5_4/sep" type="ReLU" precision="FP32" id="43">
			<input>
				<port id="0">
					<dim>1</dim>
					<dim>512</dim>
					<dim>32</dim>
					<dim>57</dim>
				</port>
			</input>
			<output>
				<port id="1">
					<dim>1</dim>
					<dim>512</dim>
					<dim>32</dim>
					<dim>57</dim>
				</port>
			</output>
		</layer>
		<layer name="conv5_5/dw" type="Convolution" precision="FP32" id="44">
			<data dilations="1,1" group="512" kernel="3,3" output="512" pads_begin="1,1" pads_end="1,1" quantization_level="I8" strides="1,1" />
			<input>
				<port id="0">
					<dim>1</dim>
					<dim>512</dim>
					<dim>32</dim>
					<dim>57</dim>
				</port>
			</input>
			<output>
				<port id="1">
					<dim>1</dim>
					<dim>512</dim>
					<dim>32</dim>
					<dim>57</dim>
				</port>
			</output>
			<blobs>
				<biases offset="5351960" size="2048" />
				<weights offset="5354008" size="18432" />
			</blobs>
		</layer>
		<layer name="relu5_5/dw" type="ReLU" precision="FP32" id="45">
			<input>
				<port id="0">
					<dim>1</dim>
					<dim>512</dim>
					<dim>32</dim>
					<dim>57</dim>
				</port>
			</input>
			<output>
				<port id="1">
					<dim>1</dim>
					<dim>512</dim>
					<dim>32</dim>
					<dim>57</dim>
				</port>
			</output>
		</layer>
		<layer name="conv5_5/sep" type="Convolution" precision="FP32" id="46">
			<data dilations="1,1" group="1" kernel="1,1" output="512" pads_begin="0,0" pads_end="0,0" quantization_level="I8" strides="1,1" />
			<input>
				<port id="0">
					<dim>1</dim>
					<dim>512</dim>
					<dim>32</dim>
					<dim>57</dim>
				</port>
			</input>
			<output>
				<port id="1">
					<dim>1</dim>
					<dim>512</dim>
					<dim>32</dim>
					<dim>57</dim>
				</port>
			</output>
			<blobs>
				<biases offset="5372440" size="2048" />
				<weights offset="5374488" size="1048576" />
			</blobs>
		</layer>
		<layer name="relu5_5/sep" type="ReLU" precision="FP32" id="47">
			<input>
				<port id="0">
					<dim>1</dim>
					<dim>512</dim>
					<dim>32</dim>
					<dim>57</dim>
				</port>
			</input>
			<output>
				<port id="1">
					<dim>1</dim>
					<dim>512</dim>
					<dim>32</dim>
					<dim>57</dim>
				</port>
			</output>
		</layer>
		<layer name="conv4_3_CPM/al" type="Convolution" precision="FP32" id="48">
			<data dilations="1,1" group="1" kernel="1,1" output="128" pads_begin="0,0" pads_end="0,0" quantization_level="I8" strides="1,1" />
			<input>
				<port id="0">
					<dim>1</dim>
					<dim>512</dim>
					<dim>32</dim>
					<dim>57</dim>
				</port>
			</input>
			<output>
				<port id="1">
					<dim>1</dim>
					<dim>128</dim>
					<dim>32</dim>
					<dim>57</dim>
				</port>
			</output>
			<blobs>
				<biases offset="6423064" size="512" />
				<weights offset="6423576" size="262144" />
			</blobs>
		</layer>
		<layer name="relu4_3_CPM/al" type="elu" precision="FP32" id="49">
			<data alpha="1.0" />
			<input>
				<port id="0">
					<dim>1</dim>
					<dim>128</dim>
					<dim>32</dim>
					<dim>57</dim>
				</port>
			</input>
			<output>
				<port id="1">
					<dim>1</dim>
					<dim>128</dim>
					<dim>32</dim>
					<dim>57</dim>
				</port>
			</output>
		</layer>
		<layer name="conv4_3_CPM/red" type="Convolution" precision="FP32" id="50">
			<data dilations="1,1" group="1" kernel="1,1" output="128" pads_begin="0,0" pads_end="0,0" quantization_level="I8" strides="1,1" />
			<input>
				<port id="0">
					<dim>1</dim>
					<dim>128</dim>
					<dim>32</dim>
					<dim>57</dim>
				</port>
			</input>
			<output>
				<port id="1">
					<dim>1</dim>
					<dim>128</dim>
					<dim>32</dim>
					<dim>57</dim>
				</port>
			</output>
			<blobs>
				<biases offset="6685720" size="512" />
				<weights offset="6686232" size="65536" />
			</blobs>
		</layer>
		<layer name="relu4_3_CPM/red" type="elu" precision="FP32" id="51">
			<data alpha="1.0" />
			<input>
				<port id="0">
					<dim>1</dim>
					<dim>128</dim>
					<dim>32</dim>
					<dim>57</dim>
				</port>
			</input>
			<output>
				<port id="1">
					<dim>1</dim>
					<dim>128</dim>
					<dim>32</dim>
					<dim>57</dim>
				</port>
			</output>
		</layer>
		<layer name="conv4_3_CPM/dw1" type="Convolution" precision="FP32" id="52">
			<data dilations="1,1" group="128" kernel="3,3" output="128" pads_begin="1,1" pads_end="1,1" quantization_level="I8" strides="1,1" />
			<input>
				<port id="0">
					<dim>1</dim>
					<dim>128</dim>
					<dim>32</dim>
					<dim>57</dim>
				</port>
			</input>
			<output>
				<port id="1">
					<dim>1</dim>
					<dim>128</dim>
					<dim>32</dim>
					<dim>57</dim>
				</port>
			</output>
			<blobs>
				<weights offset="6751768" size="4608" />
			</blobs>
		</layer>
		<layer name="relu4_3_CPM/dw1" type="elu" precision="FP32" id="53">
			<data alpha="1.0" />
			<input>
				<port id="0">
					<dim>1</dim>
					<dim>128</dim>
					<dim>32</dim>
					<dim>57</dim>
				</port>
			</input>
			<output>
				<port id="1">
					<dim>1</dim>
					<dim>128</dim>
					<dim>32</dim>
					<dim>57</dim>
				</port>
			</output>
		</layer>
		<layer name="conv4_3_CPM/dw1/1x1" type="Convolution" precision="FP32" id="54">
			<data dilations="1,1" group="1" kernel="1,1" output="128" pads_begin="0,0" pads_end="0,0" quantization_level="I8" strides="1,1" />
			<input>
				<port id="0">
					<dim>1</dim>
					<dim>128</dim>
					<dim>32</dim>
					<dim>57</dim>
				</port>
			</input>
			<output>
				<port id="1">
					<dim>1</dim>
					<dim>128</dim>
					<dim>32</dim>
					<dim>57</dim>
				</port>
			</output>
			<blobs>
				<biases offset="6756376" size="512" />
				<weights offset="6756888" size="65536" />
			</blobs>
		</layer>
		<layer name="relu/conv4_3_CPM/dw1/1x1" type="elu" precision="FP32" id="55">
			<data alpha="1.0" />
			<input>
				<port id="0">
					<dim>1</dim>
					<dim>128</dim>
					<dim>32</dim>
					<dim>57</dim>
				</port>
			</input>
			<output>
				<port id="1">
					<dim>1</dim>
					<dim>128</dim>
					<dim>32</dim>
					<dim>57</dim>
				</port>
			</output>
		</layer>
		<layer name="conv4_3_CPM/dw2" type="Convolution" precision="FP32" id="56">
			<data dilations="1,1" group="128" kernel="3,3" output="128" pads_begin="1,1" pads_end="1,1" quantization_level="I8" strides="1,1" />
			<input>
				<port id="0">
					<dim>1</dim>
					<dim>128</dim>
					<dim>32</dim>
					<dim>57</dim>
				</port>
			</input>
			<output>
				<port id="1">
					<dim>1</dim>
					<dim>128</dim>
					<dim>32</dim>
					<dim>57</dim>
				</port>
			</output>
			<blobs>
				<weights offset="6822424" size="4608" />
			</blobs>
		</layer>
		<layer name="relu4_3_CPM/dw2" type="elu" precision="FP32" id="57">
			<data alpha="1.0" />
			<input>
				<port id="0">
					<dim>1</dim>
					<dim>128</dim>
					<dim>32</dim>
					<dim>57</dim>
				</port>
			</input>
			<output>
				<port id="1">
					<dim>1</dim>
					<dim>128</dim>
					<dim>32</dim>
					<dim>57</dim>
				</port>
			</output>
		</layer>
		<layer name="conv4_3_CPM/dw2/1x1" type="Convolution" precision="FP32" id="58">
			<data dilations="1,1" group="1" kernel="1,1" output="128" pads_begin="0,0" pads_end="0,0" quantization_level="I8" strides="1,1" />
			<input>
				<port id="0">
					<dim>1</dim>
					<dim>128</dim>
					<dim>32</dim>
					<dim>57</dim>
				</port>
			</input>
			<output>
				<port id="1">
					<dim>1</dim>
					<dim>128</dim>
					<dim>32</dim>
					<dim>57</dim>
				</port>
			</output>
			<blobs>
				<biases offset="6827032" size="512" />
				<weights offset="6827544" size="65536" />
			</blobs>
		</layer>
		<layer name="relu/conv4_3_CPM/dw2/1x1" type="elu" precision="FP32" id="59">
			<data alpha="1.0" />
			<input>
				<port id="0">
					<dim>1</dim>
					<dim>128</dim>
					<dim>32</dim>
					<dim>57</dim>
				</port>
			</input>
			<output>
				<port id="1">
					<dim>1</dim>
					<dim>128</dim>
					<dim>32</dim>
					<dim>57</dim>
				</port>
			</output>
		</layer>
		<layer name="conv4_3_CPM/dw3" type="Convolution" precision="FP32" id="60">
			<data dilations="1,1" group="128" kernel="3,3" output="128" pads_begin="1,1" pads_end="1,1" quantization_level="I8" strides="1,1" />
			<input>
				<port id="0">
					<dim>1</dim>
					<dim>128</dim>
					<dim>32</dim>
					<dim>57</dim>
				</port>
			</input>
			<output>
				<port id="1">
					<dim>1</dim>
					<dim>128</dim>
					<dim>32</dim>
					<dim>57</dim>
				</port>
			</output>
			<blobs>
				<weights offset="6893080" size="4608" />
			</blobs>
		</layer>
		<layer name="relu4_3_CPM/dw3" type="elu" precision="FP32" id="61">
			<data alpha="1.0" />
			<input>
				<port id="0">
					<dim>1</dim>
					<dim>128</dim>
					<dim>32</dim>
					<dim>57</dim>
				</port>
			</input>
			<output>
				<port id="1">
					<dim>1</dim>
					<dim>128</dim>
					<dim>32</dim>
					<dim>57</dim>
				</port>
			</output>
		</layer>
		<layer name="conv4_3_CPM/inc" type="Convolution" precision="FP32" id="62">
			<data dilations="1,1" group="1" kernel="1,1" output="128" pads_begin="0,0" pads_end="0,0" quantization_level="I8" strides="1,1" />
			<input>
				<port id="0">
					<dim>1</dim>
					<dim>128</dim>
					<dim>32</dim>
					<dim>57</dim>
				</port>
			</input>
			<output>
				<port id="1">
					<dim>1</dim>
					<dim>128</dim>
					<dim>32</dim>
					<dim>57</dim>
				</port>
			</output>
			<blobs>
				<biases offset="6897688" size="512" />
				<weights offset="6898200" size="65536" />
			</blobs>
		</layer>
		<layer name="relu4_3_CPM/inc" type="elu" precision="FP32" id="63">
			<data alpha="1.0" />
			<input>
				<port id="0">
					<dim>1</dim>
					<dim>128</dim>
					<dim>32</dim>
					<dim>57</dim>
				</port>
			</input>
			<output>
				<port id="1">
					<dim>1</dim>
					<dim>128</dim>
					<dim>32</dim>
					<dim>57</dim>
				</port>
			</output>
		</layer>
		<layer name="conv4_3_CPM/res" type="Eltwise" precision="FP32" id="64">
			<data operation="sum" />
			<input>
				<port id="0">
					<dim>1</dim>
					<dim>128</dim>
					<dim>32</dim>
					<dim>57</dim>
				</port>
				<port id="1">
					<dim>1</dim>
					<dim>128</dim>
					<dim>32</dim>
					<dim>57</dim>
				</port>
			</input>
			<output>
				<port id="2">
					<dim>1</dim>
					<dim>128</dim>
					<dim>32</dim>
					<dim>57</dim>
				</port>
			</output>
		</layer>
		<layer name="conv4_4_CPM" type="Convolution" precision="FP32" id="65">
			<data dilations="1,1" group="1" kernel="3,3" output="128" pads_begin="1,1" pads_end="1,1" quantization_level="I8" strides="1,1" />
			<input>
				<port id="0">
					<dim>1</dim>
					<dim>128</dim>
					<dim>32</dim>
					<dim>57</dim>
				</port>
			</input>
			<output>
				<port id="1">
					<dim>1</dim>
					<dim>128</dim>
					<dim>32</dim>
					<dim>57</dim>
				</port>
			</output>
			<blobs>
				<biases offset="6963736" size="512" />
				<weights offset="6964248" size="589824" />
			</blobs>
		</layer>
		<layer name="relu4_4_CPM" type="ReLU" precision="FP32" id="66">
			<input>
				<port id="0">
					<dim>1</dim>
					<dim>128</dim>
					<dim>32</dim>
					<dim>57</dim>
				</port>
			</input>
			<output>
				<port id="1">
					<dim>1</dim>
					<dim>128</dim>
					<dim>32</dim>
					<dim>57</dim>
				</port>
			</output>
		</layer>
		<layer name="conv5_1_CPM_L1" type="Convolution" precision="FP32" id="67">
			<data dilations="1,1" group="1" kernel="3,3" output="128" pads_begin="1,1" pads_end="1,1" quantization_level="I8" strides="1,1" />
			<input>
				<port id="0">
					<dim>1</dim>
					<dim>128</dim>
					<dim>32</dim>
					<dim>57</dim>
				</port>
			</input>
			<output>
				<port id="1">
					<dim>1</dim>
					<dim>128</dim>
					<dim>32</dim>
					<dim>57</dim>
				</port>
			</output>
			<blobs>
				<biases offset="7554072" size="512" />
				<weights offset="7554584" size="589824" />
			</blobs>
		</layer>
		<layer name="relu5_1_CPM_L1" type="ReLU" precision="FP32" id="68">
			<input>
				<port id="0">
					<dim>1</dim>
					<dim>128</dim>
					<dim>32</dim>
					<dim>57</dim>
				</port>
			</input>
			<output>
				<port id="1">
					<dim>1</dim>
					<dim>128</dim>
					<dim>32</dim>
					<dim>57</dim>
				</port>
			</output>
		</layer>
		<layer name="conv5_2_CPM_L1" type="Convolution" precision="FP32" id="69">
			<data dilations="1,1" group="1" kernel="3,3" output="128" pads_begin="1,1" pads_end="1,1" quantization_level="I8" strides="1,1" />
			<input>
				<port id="0">
					<dim>1</dim>
					<dim>128</dim>
					<dim>32</dim>
					<dim>57</dim>
				</port>
			</input>
			<output>
				<port id="1">
					<dim>1</dim>
					<dim>128</dim>
					<dim>32</dim>
					<dim>57</dim>
				</port>
			</output>
			<blobs>
				<biases offset="8144408" size="512" />
				<weights offset="8144920" size="589824" />
			</blobs>
		</layer>
		<layer name="relu5_2_CPM_L1" type="ReLU" precision="FP32" id="70">
			<input>
				<port id="0">
					<dim>1</dim>
					<dim>128</dim>
					<dim>32</dim>
					<dim>57</dim>
				</port>
			</input>
			<output>
				<port id="1">
					<dim>1</dim>
					<dim>128</dim>
					<dim>32</dim>
					<dim>57</dim>
				</port>
			</output>
		</layer>
		<layer name="conv5_3_CPM_L1" type="Convolution" precision="FP32" id="71">
			<data dilations="1,1" group="1" kernel="3,3" output="128" pads_begin="1,1" pads_end="1,1" quantization_level="I8" strides="1,1" />
			<input>
				<port id="0">
					<dim>1</dim>
					<dim>128</dim>
					<dim>32</dim>
					<dim>57</dim>
				</port>
			</input>
			<output>
				<port id="1">
					<dim>1</dim>
					<dim>128</dim>
					<dim>32</dim>
					<dim>57</dim>
				</port>
			</output>
			<blobs>
				<biases offset="8734744" size="512" />
				<weights offset="8735256" size="589824" />
			</blobs>
		</layer>
		<layer name="relu5_3_CPM_L1" type="ReLU" precision="FP32" id="72">
			<input>
				<port id="0">
					<dim>1</dim>
					<dim>128</dim>
					<dim>32</dim>
					<dim>57</dim>
				</port>
			</input>
			<output>
				<port id="1">
					<dim>1</dim>
					<dim>128</dim>
					<dim>32</dim>
					<dim>57</dim>
				</port>
			</output>
		</layer>
		<layer name="conv5_4_CPM_L2" type="Convolution" precision="FP32" id="73">
			<data dilations="1,1" group="1" kernel="1,1" output="512" pads_begin="0,0" pads_end="0,0" quantization_level="I8" strides="1,1" />
			<input>
				<port id="0">
					<dim>1</dim>
					<dim>128</dim>
					<dim>32</dim>
					<dim>57</dim>
				</port>
			</input>
			<output>
				<port id="1">
					<dim>1</dim>
					<dim>512</dim>
					<dim>32</dim>
					<dim>57</dim>
				</port>
			</output>
			<blobs>
				<biases offset="9325080" size="2048" />
				<weights offset="9327128" size="262144" />
			</blobs>
		</layer>
		<layer name="relu5_4_CPM_L2" type="ReLU" precision="FP32" id="74">
			<input>
				<port id="0">
					<dim>1</dim>
					<dim>512</dim>
					<dim>32</dim>
					<dim>57</dim>
				</port>
			</input>
			<output>
				<port id="1">
					<dim>1</dim>
					<dim>512</dim>
					<dim>32</dim>
					<dim>57</dim>
				</port>
			</output>
		</layer>
		<layer name="conv5_5_CPM_L2" type="Convolution" precision="FP32" id="75">
			<data dilations="1,1" group="1" kernel="1,1" output="19" pads_begin="0,0" pads_end="0,0" quantization_level="I8" strides="1,1" />
			<input>
				<port id="0">
					<dim>1</dim>
					<dim>512</dim>
					<dim>32</dim>
					<dim>57</dim>
				</port>
			</input>
			<output>
				<port id="1">
					<dim>1</dim>
					<dim>19</dim>
					<dim>32</dim>
					<dim>57</dim>
				</port>
			</output>
			<blobs>
				<biases offset="9589272" size="76" />
				<weights offset="9589348" size="38912" />
			</blobs>
		</layer>
		<layer name="conv5_4_CPM_L1" type="Convolution" precision="FP32" id="76">
			<data dilations="1,1" group="1" kernel="1,1" output="512" pads_begin="0,0" pads_end="0,0" quantization_level="I8" strides="1,1" />
			<input>
				<port id="0">
					<dim>1</dim>
					<dim>128</dim>
					<dim>32</dim>
					<dim>57</dim>
				</port>
			</input>
			<output>
				<port id="1">
					<dim>1</dim>
					<dim>512</dim>
					<dim>32</dim>
					<dim>57</dim>
				</port>
			</output>
			<blobs>
				<biases offset="9628260" size="2048" />
				<weights offset="9630308" size="262144" />
			</blobs>
		</layer>
		<layer name="relu5_4_CPM_L1" type="ReLU" precision="FP32" id="77">
			<input>
				<port id="0">
					<dim>1</dim>
					<dim>512</dim>
					<dim>32</dim>
					<dim>57</dim>
				</port>
			</input>
			<output>
				<port id="1">
					<dim>1</dim>
					<dim>512</dim>
					<dim>32</dim>
					<dim>57</dim>
				</port>
			</output>
		</layer>
		<layer name="conv5_5_CPM_L1" type="Convolution" precision="FP32" id="78">
			<data dilations="1,1" group="1" kernel="1,1" output="38" pads_begin="0,0" pads_end="0,0" quantization_level="I8" strides="1,1" />
			<input>
				<port id="0">
					<dim>1</dim>
					<dim>512</dim>
					<dim>32</dim>
					<dim>57</dim>
				</port>
			</input>
			<output>
				<port id="1">
					<dim>1</dim>
					<dim>38</dim>
					<dim>32</dim>
					<dim>57</dim>
				</port>
			</output>
			<blobs>
				<biases offset="9892452" size="152" />
				<weights offset="9892604" size="77824" />
			</blobs>
		</layer>
		<layer name="concat_stage2" type="Concat" precision="FP32" id="79">
			<data axis="1" />
			<input>
				<port id="0">
					<dim>1</dim>
					<dim>38</dim>
					<dim>32</dim>
					<dim>57</dim>
				</port>
				<port id="1">
					<dim>1</dim>
					<dim>19</dim>
					<dim>32</dim>
					<dim>57</dim>
				</port>
				<port id="2">
					<dim>1</dim>
					<dim>128</dim>
					<dim>32</dim>
					<dim>57</dim>
				</port>
			</input>
			<output>
				<port id="3">
					<dim>1</dim>
					<dim>185</dim>
					<dim>32</dim>
					<dim>57</dim>
				</port>
			</output>
		</layer>
		<layer name="Mconv1_stage2_L1/sq" type="Convolution" precision="FP32" id="80">
			<data dilations="1,1" group="1" kernel="1,1" output="128" pads_begin="0,0" pads_end="0,0" quantization_level="I8" strides="1,1" />
			<input>
				<port id="0">
					<dim>1</dim>
					<dim>185</dim>
					<dim>32</dim>
					<dim>57</dim>
				</port>
			</input>
			<output>
				<port id="1">
					<dim>1</dim>
					<dim>128</dim>
					<dim>32</dim>
					<dim>57</dim>
				</port>
			</output>
			<blobs>
				<biases offset="9970428" size="512" />
				<weights offset="9970940" size="94720" />
			</blobs>
		</layer>
		<layer name="relu/Mconv1_stage2_L1/sq" type="ReLU" precision="FP32" id="81">
			<input>
				<port id="0">
					<dim>1</dim>
					<dim>128</dim>
					<dim>32</dim>
					<dim>57</dim>
				</port>
			</input>
			<output>
				<port id="1">
					<dim>1</dim>
					<dim>128</dim>
					<dim>32</dim>
					<dim>57</dim>
				</port>
			</output>
		</layer>
		<layer name="Mconv1_stage2_L1/3x3" type="Convolution" precision="FP32" id="82">
			<data dilations="1,1" group="1" kernel="3,3" output="128" pads_begin="1,1" pads_end="1,1" quantization_level="I8" strides="1,1" />
			<input>
				<port id="0">
					<dim>1</dim>
					<dim>128</dim>
					<dim>32</dim>
					<dim>57</dim>
				</port>
			</input>
			<output>
				<port id="1">
					<dim>1</dim>
					<dim>128</dim>
					<dim>32</dim>
					<dim>57</dim>
				</port>
			</output>
			<blobs>
				<biases offset="10065660" size="512" />
				<weights offset="10066172" size="589824" />
			</blobs>
		</layer>
		<layer name="relu/Mconv1_stage2_L1/3x3" type="ReLU" precision="FP32" id="83">
			<input>
				<port id="0">
					<dim>1</dim>
					<dim>128</dim>
					<dim>32</dim>
					<dim>57</dim>
				</port>
			</input>
			<output>
				<port id="1">
					<dim>1</dim>
					<dim>128</dim>
					<dim>32</dim>
					<dim>57</dim>
				</port>
			</output>
		</layer>
		<layer name="Mconv1_stage2_L1/3x3/2" type="Convolution" precision="FP32" id="84">
			<data dilations="2,2" group="1" kernel="3,3" output="128" pads_begin="2,2" pads_end="2,2" quantization_level="I8" strides="1,1" />
			<input>
				<port id="0">
					<dim>1</dim>
					<dim>128</dim>
					<dim>32</dim>
					<dim>57</dim>
				</port>
			</input>
			<output>
				<port id="1">
					<dim>1</dim>
					<dim>128</dim>
					<dim>32</dim>
					<dim>57</dim>
				</port>
			</output>
			<blobs>
				<biases offset="10655996" size="512" />
				<weights offset="10656508" size="589824" />
			</blobs>
		</layer>
		<layer name="relu/Mconv1_stage2_L1/3x3/2" type="ReLU" precision="FP32" id="85">
			<input>
				<port id="0">
					<dim>1</dim>
					<dim>128</dim>
					<dim>32</dim>
					<dim>57</dim>
				</port>
			</input>
			<output>
				<port id="1">
					<dim>1</dim>
					<dim>128</dim>
					<dim>32</dim>
					<dim>57</dim>
				</port>
			</output>
		</layer>
		<layer name="Mconv1_stage2_L1/5x5/res" type="Eltwise" precision="FP32" id="86">
			<data operation="sum" />
			<input>
				<port id="0">
					<dim>1</dim>
					<dim>128</dim>
					<dim>32</dim>
					<dim>57</dim>
				</port>
				<port id="1">
					<dim>1</dim>
					<dim>128</dim>
					<dim>32</dim>
					<dim>57</dim>
				</port>
			</input>
			<output>
				<port id="2">
					<dim>1</dim>
					<dim>128</dim>
					<dim>32</dim>
					<dim>57</dim>
				</port>
			</output>
		</layer>
		<layer name="Mconv2_stage2_L1/sq" type="Convolution" precision="FP32" id="87">
			<data dilations="1,1" group="1" kernel="1,1" output="128" pads_begin="0,0" pads_end="0,0" quantization_level="I8" strides="1,1" />
			<input>
				<port id="0">
					<dim>1</dim>
					<dim>128</dim>
					<dim>32</dim>
					<dim>57</dim>
				</port>
			</input>
			<output>
				<port id="1">
					<dim>1</dim>
					<dim>128</dim>
					<dim>32</dim>
					<dim>57</dim>
				</port>
			</output>
			<blobs>
				<biases offset="11246332" size="512" />
				<weights offset="11246844" size="65536" />
			</blobs>
		</layer>
		<layer name="relu/Mconv2_stage2_L1/sq" type="ReLU" precision="FP32" id="88">
			<input>
				<port id="0">
					<dim>1</dim>
					<dim>128</dim>
					<dim>32</dim>
					<dim>57</dim>
				</port>
			</input>
			<output>
				<port id="1">
					<dim>1</dim>
					<dim>128</dim>
					<dim>32</dim>
					<dim>57</dim>
				</port>
			</output>
		</layer>
		<layer name="Mconv2_stage2_L1/3x3" type="Convolution" precision="FP32" id="89">
			<data dilations="1,1" group="1" kernel="3,3" output="128" pads_begin="1,1" pads_end="1,1" quantization_level="I8" strides="1,1" />
			<input>
				<port id="0">
					<dim>1</dim>
					<dim>128</dim>
					<dim>32</dim>
					<dim>57</dim>
				</port>
			</input>
			<output>
				<port id="1">
					<dim>1</dim>
					<dim>128</dim>
					<dim>32</dim>
					<dim>57</dim>
				</port>
			</output>
			<blobs>
				<biases offset="11312380" size="512" />
				<weights offset="11312892" size="589824" />
			</blobs>
		</layer>
		<layer name="relu/Mconv2_stage2_L1/3x3" type="ReLU" precision="FP32" id="90">
			<input>
				<port id="0">
					<dim>1</dim>
					<dim>128</dim>
					<dim>32</dim>
					<dim>57</dim>
				</port>
			</input>
			<output>
				<port id="1">
					<dim>1</dim>
					<dim>128</dim>
					<dim>32</dim>
					<dim>57</dim>
				</port>
			</output>
		</layer>
		<layer name="Mconv2_stage2_L1/3x3/2" type="Convolution" precision="FP32" id="91">
			<data dilations="2,2" group="1" kernel="3,3" output="128" pads_begin="2,2" pads_end="2,2" quantization_level="I8" strides="1,1" />
			<input>
				<port id="0">
					<dim>1</dim>
					<dim>128</dim>
					<dim>32</dim>
					<dim>57</dim>
				</port>
			</input>
			<output>
				<port id="1">
					<dim>1</dim>
					<dim>128</dim>
					<dim>32</dim>
					<dim>57</dim>
				</port>
			</output>
			<blobs>
				<biases offset="11902716" size="512" />
				<weights offset="11903228" size="589824" />
			</blobs>
		</layer>
		<layer name="relu/Mconv2_stage2_L1/3x3/2" type="ReLU" precision="FP32" id="92">
			<input>
				<port id="0">
					<dim>1</dim>
					<dim>128</dim>
					<dim>32</dim>
					<dim>57</dim>
				</port>
			</input>
			<output>
				<port id="1">
					<dim>1</dim>
					<dim>128</dim>
					<dim>32</dim>
					<dim>57</dim>
				</port>
			</output>
		</layer>
		<layer name="Mconv2_stage2_L1/5x5/res" type="Eltwise" precision="FP32" id="93">
			<data operation="sum" />
			<input>
				<port id="0">
					<dim>1</dim>
					<dim>128</dim>
					<dim>32</dim>
					<dim>57</dim>
				</port>
				<port id="1">
					<dim>1</dim>
					<dim>128</dim>
					<dim>32</dim>
					<dim>57</dim>
				</port>
			</input>
			<output>
				<port id="2">
					<dim>1</dim>
					<dim>128</dim>
					<dim>32</dim>
					<dim>57</dim>
				</port>
			</output>
		</layer>
		<layer name="Mconv3_stage2_L1/sq" type="Convolution" precision="FP32" id="94">
			<data dilations="1,1" group="1" kernel="1,1" output="128" pads_begin="0,0" pads_end="0,0" quantization_level="I8" strides="1,1" />
			<input>
				<port id="0">
					<dim>1</dim>
					<dim>128</dim>
					<dim>32</dim>
					<dim>57</dim>
				</port>
			</input>
			<output>
				<port id="1">
					<dim>1</dim>
					<dim>128</dim>
					<dim>32</dim>
					<dim>57</dim>
				</port>
			</output>
			<blobs>
				<biases offset="12493052" size="512" />
				<weights offset="12493564" size="65536" />
			</blobs>
		</layer>
		<layer name="relu/Mconv3_stage2_L1/sq" type="ReLU" precision="FP32" id="95">
			<input>
				<port id="0">
					<dim>1</dim>
					<dim>128</dim>
					<dim>32</dim>
					<dim>57</dim>
				</port>
			</input>
			<output>
				<port id="1">
					<dim>1</dim>
					<dim>128</dim>
					<dim>32</dim>
					<dim>57</dim>
				</port>
			</output>
		</layer>
		<layer name="Mconv3_stage2_L1/3x3" type="Convolution" precision="FP32" id="96">
			<data dilations="1,1" group="1" kernel="3,3" output="128" pads_begin="1,1" pads_end="1,1" quantization_level="I8" strides="1,1" />
			<input>
				<port id="0">
					<dim>1</dim>
					<dim>128</dim>
					<dim>32</dim>
					<dim>57</dim>
				</port>
			</input>
			<output>
				<port id="1">
					<dim>1</dim>
					<dim>128</dim>
					<dim>32</dim>
					<dim>57</dim>
				</port>
			</output>
			<blobs>
				<biases offset="12559100" size="512" />
				<weights offset="12559612" size="589824" />
			</blobs>
		</layer>
		<layer name="relu/Mconv3_stage2_L1/3x3" type="ReLU" precision="FP32" id="97">
			<input>
				<port id="0">
					<dim>1</dim>
					<dim>128</dim>
					<dim>32</dim>
					<dim>57</dim>
				</port>
			</input>
			<output>
				<port id="1">
					<dim>1</dim>
					<dim>128</dim>
					<dim>32</dim>
					<dim>57</dim>
				</port>
			</output>
		</layer>
		<layer name="Mconv3_stage2_L1/3x3/2" type="Convolution" precision="FP32" id="98">
			<data dilations="2,2" group="1" kernel="3,3" output="128" pads_begin="2,2" pads_end="2,2" quantization_level="I8" strides="1,1" />
			<input>
				<port id="0">
					<dim>1</dim>
					<dim>128</dim>
					<dim>32</dim>
					<dim>57</dim>
				</port>
			</input>
			<output>
				<port id="1">
					<dim>1</dim>
					<dim>128</dim>
					<dim>32</dim>
					<dim>57</dim>
				</port>
			</output>
			<blobs>
				<biases offset="13149436" size="512" />
				<weights offset="13149948" size="589824" />
			</blobs>
		</layer>
		<layer name="relu/Mconv3_stage2_L1/3x3/2" type="ReLU" precision="FP32" id="99">
			<input>
				<port id="0">
					<dim>1</dim>
					<dim>128</dim>
					<dim>32</dim>
					<dim>57</dim>
				</port>
			</input>
			<output>
				<port id="1">
					<dim>1</dim>
					<dim>128</dim>
					<dim>32</dim>
					<dim>57</dim>
				</port>
			</output>
		</layer>
		<layer name="Mconv3_stage2_L1/5x5/res" type="Eltwise" precision="FP32" id="100">
			<data operation="sum" />
			<input>
				<port id="0">
					<dim>1</dim>
					<dim>128</dim>
					<dim>32</dim>
					<dim>57</dim>
				</port>
				<port id="1">
					<dim>1</dim>
					<dim>128</dim>
					<dim>32</dim>
					<dim>57</dim>
				</port>
			</input>
			<output>
				<port id="2">
					<dim>1</dim>
					<dim>128</dim>
					<dim>32</dim>
					<dim>57</dim>
				</port>
			</output>
		</layer>
		<layer name="Mconv4_stage2_L1/sq" type="Convolution" precision="FP32" id="101">
			<data dilations="1,1" group="1" kernel="1,1" output="128" pads_begin="0,0" pads_end="0,0" quantization_level="I8" strides="1,1" />
			<input>
				<port id="0">
					<dim>1</dim>
					<dim>128</dim>
					<dim>32</dim>
					<dim>57</dim>
				</port>
			</input>
			<output>
				<port id="1">
					<dim>1</dim>
					<dim>128</dim>
					<dim>32</dim>
					<dim>57</dim>
				</port>
			</output>
			<blobs>
				<biases offset="13739772" size="512" />
				<weights offset="13740284" size="65536" />
			</blobs>
		</layer>
		<layer name="relu/Mconv4_stage2_L1/sq" type="ReLU" precision="FP32" id="102">
			<input>
				<port id="0">
					<dim>1</dim>
					<dim>128</dim>
					<dim>32</dim>
					<dim>57</dim>
				</port>
			</input>
			<output>
				<port id="1">
					<dim>1</dim>
					<dim>128</dim>
					<dim>32</dim>
					<dim>57</dim>
				</port>
			</output>
		</layer>
		<layer name="Mconv4_stage2_L1/3x3" type="Convolution" precision="FP32" id="103">
			<data dilations="1,1" group="1" kernel="3,3" output="128" pads_begin="1,1" pads_end="1,1" quantization_level="I8" strides="1,1" />
			<input>
				<port id="0">
					<dim>1</dim>
					<dim>128</dim>
					<dim>32</dim>
					<dim>57</dim>
				</port>
			</input>
			<output>
				<port id="1">
					<dim>1</dim>
					<dim>128</dim>
					<dim>32</dim>
					<dim>57</dim>
				</port>
			</output>
			<blobs>
				<biases offset="13805820" size="512" />
				<weights offset="13806332" size="589824" />
			</blobs>
		</layer>
		<layer name="relu/Mconv4_stage2_L1/3x3" type="ReLU" precision="FP32" id="104">
			<input>
				<port id="0">
					<dim>1</dim>
					<dim>128</dim>
					<dim>32</dim>
					<dim>57</dim>
				</port>
			</input>
			<output>
				<port id="1">
					<dim>1</dim>
					<dim>128</dim>
					<dim>32</dim>
					<dim>57</dim>
				</port>
			</output>
		</layer>
		<layer name="Mconv4_stage2_L1/3x3/2" type="Convolution" precision="FP32" id="105">
			<data dilations="2,2" group="1" kernel="3,3" output="128" pads_begin="2,2" pads_end="2,2" quantization_level="I8" strides="1,1" />
			<input>
				<port id="0">
					<dim>1</dim>
					<dim>128</dim>
					<dim>32</dim>
					<dim>57</dim>
				</port>
			</input>
			<output>
				<port id="1">
					<dim>1</dim>
					<dim>128</dim>
					<dim>32</dim>
					<dim>57</dim>
				</port>
			</output>
			<blobs>
				<biases offset="14396156" size="512" />
				<weights offset="14396668" size="589824" />
			</blobs>
		</layer>
		<layer name="relu/Mconv4_stage2_L1/3x3/2" type="ReLU" precision="FP32" id="106">
			<input>
				<port id="0">
					<dim>1</dim>
					<dim>128</dim>
					<dim>32</dim>
					<dim>57</dim>
				</port>
			</input>
			<output>
				<port id="1">
					<dim>1</dim>
					<dim>128</dim>
					<dim>32</dim>
					<dim>57</dim>
				</port>
			</output>
		</layer>
		<layer name="Mconv4_stage2_L1/5x5/res" type="Eltwise" precision="FP32" id="107">
			<data operation="sum" />
			<input>
				<port id="0">
					<dim>1</dim>
					<dim>128</dim>
					<dim>32</dim>
					<dim>57</dim>
				</port>
				<port id="1">
					<dim>1</dim>
					<dim>128</dim>
					<dim>32</dim>
					<dim>57</dim>
				</port>
			</input>
			<output>
				<port id="2">
					<dim>1</dim>
					<dim>128</dim>
					<dim>32</dim>
					<dim>57</dim>
				</port>
			</output>
		</layer>
		<layer name="Mconv5_stage2_L1/sq" type="Convolution" precision="FP32" id="108">
			<data dilations="1,1" group="1" kernel="1,1" output="128" pads_begin="0,0" pads_end="0,0" quantization_level="I8" strides="1,1" />
			<input>
				<port id="0">
					<dim>1</dim>
					<dim>128</dim>
					<dim>32</dim>
					<dim>57</dim>
				</port>
			</input>
			<output>
				<port id="1">
					<dim>1</dim>
					<dim>128</dim>
					<dim>32</dim>
					<dim>57</dim>
				</port>
			</output>
			<blobs>
				<biases offset="14986492" size="512" />
				<weights offset="14987004" size="65536" />
			</blobs>
		</layer>
		<layer name="relu/Mconv5_stage2_L1/sq" type="ReLU" precision="FP32" id="109">
			<input>
				<port id="0">
					<dim>1</dim>
					<dim>128</dim>
					<dim>32</dim>
					<dim>57</dim>
				</port>
			</input>
			<output>
				<port id="1">
					<dim>1</dim>
					<dim>128</dim>
					<dim>32</dim>
					<dim>57</dim>
				</port>
			</output>
		</layer>
		<layer name="Mconv5_stage2_L1/3x3" type="Convolution" precision="FP32" id="110">
			<data dilations="1,1" group="1" kernel="3,3" output="128" pads_begin="1,1" pads_end="1,1" quantization_level="I8" strides="1,1" />
			<input>
				<port id="0">
					<dim>1</dim>
					<dim>128</dim>
					<dim>32</dim>
					<dim>57</dim>
				</port>
			</input>
			<output>
				<port id="1">
					<dim>1</dim>
					<dim>128</dim>
					<dim>32</dim>
					<dim>57</dim>
				</port>
			</output>
			<blobs>
				<biases offset="15052540" size="512" />
				<weights offset="15053052" size="589824" />
			</blobs>
		</layer>
		<layer name="relu/Mconv5_stage2_L1/3x3" type="ReLU" precision="FP32" id="111">
			<input>
				<port id="0">
					<dim>1</dim>
					<dim>128</dim>
					<dim>32</dim>
					<dim>57</dim>
				</port>
			</input>
			<output>
				<port id="1">
					<dim>1</dim>
					<dim>128</dim>
					<dim>32</dim>
					<dim>57</dim>
				</port>
			</output>
		</layer>
		<layer name="Mconv5_stage2_L1/3x3/2" type="Convolution" precision="FP32" id="112">
			<data dilations="2,2" group="1" kernel="3,3" output="128" pads_begin="2,2" pads_end="2,2" quantization_level="I8" strides="1,1" />
			<input>
				<port id="0">
					<dim>1</dim>
					<dim>128</dim>
					<dim>32</dim>
					<dim>57</dim>
				</port>
			</input>
			<output>
				<port id="1">
					<dim>1</dim>
					<dim>128</dim>
					<dim>32</dim>
					<dim>57</dim>
				</port>
			</output>
			<blobs>
				<biases offset="15642876" size="512" />
				<weights offset="15643388" size="589824" />
			</blobs>
		</layer>
		<layer name="relu/Mconv5_stage2_L1/3x3/2" type="ReLU" precision="FP32" id="113">
			<input>
				<port id="0">
					<dim>1</dim>
					<dim>128</dim>
					<dim>32</dim>
					<dim>57</dim>
				</port>
			</input>
			<output>
				<port id="1">
					<dim>1</dim>
					<dim>128</dim>
					<dim>32</dim>
					<dim>57</dim>
				</port>
			</output>
		</layer>
		<layer name="Mconv5_stage2_L1/5x5/res" type="Eltwise" precision="FP32" id="114">
			<data operation="sum" />
			<input>
				<port id="0">
					<dim>1</dim>
					<dim>128</dim>
					<dim>32</dim>
					<dim>57</dim>
				</port>
				<port id="1">
					<dim>1</dim>
					<dim>128</dim>
					<dim>32</dim>
					<dim>57</dim>
				</port>
			</input>
			<output>
				<port id="2">
					<dim>1</dim>
					<dim>128</dim>
					<dim>32</dim>
					<dim>57</dim>
				</port>
			</output>
		</layer>
		<layer name="Mconv6_stage2_L2" type="Convolution" precision="FP32" id="115">
			<data dilations="1,1" group="1" kernel="1,1" output="128" pads_begin="0,0" pads_end="0,0" quantization_level="I8" strides="1,1" />
			<input>
				<port id="0">
					<dim>1</dim>
					<dim>128</dim>
					<dim>32</dim>
					<dim>57</dim>
				</port>
			</input>
			<output>
				<port id="1">
					<dim>1</dim>
					<dim>128</dim>
					<dim>32</dim>
					<dim>57</dim>
				</port>
			</output>
			<blobs>
				<biases offset="16233212" size="512" />
				<weights offset="16233724" size="65536" />
			</blobs>
		</layer>
		<layer name="Mrelu6_stage2_L2" type="ReLU" precision="FP32" id="116">
			<input>
				<port id="0">
					<dim>1</dim>
					<dim>128</dim>
					<dim>32</dim>
					<dim>57</dim>
				</port>
			</input>
			<output>
				<port id="1">
					<dim>1</dim>
					<dim>128</dim>
					<dim>32</dim>
					<dim>57</dim>
				</port>
			</output>
		</layer>
		<layer name="Mconv7_stage2_L2" type="Convolution" precision="FP32" id="117">
			<data dilations="1,1" group="1" kernel="1,1" output="19" pads_begin="0,0" pads_end="0,0" quantization_level="I8" strides="1,1" />
			<input>
				<port id="0">
					<dim>1</dim>
					<dim>128</dim>
					<dim>32</dim>
					<dim>57</dim>
				</port>
			</input>
			<output>
				<port id="1">
					<dim>1</dim>
					<dim>19</dim>
					<dim>32</dim>
					<dim>57</dim>
				</port>
			</output>
			<blobs>
				<biases offset="16299260" size="76" />
				<weights offset="16299336" size="9728" />
			</blobs>
		</layer>
		<layer name="Mconv6_stage2_L1" type="Convolution" precision="FP32" id="118">
			<data dilations="1,1" group="1" kernel="1,1" output="128" pads_begin="0,0" pads_end="0,0" quantization_level="I8" strides="1,1" />
			<input>
				<port id="0">
					<dim>1</dim>
					<dim>128</dim>
					<dim>32</dim>
					<dim>57</dim>
				</port>
			</input>
			<output>
				<port id="1">
					<dim>1</dim>
					<dim>128</dim>
					<dim>32</dim>
					<dim>57</dim>
				</port>
			</output>
			<blobs>
				<biases offset="16309064" size="512" />
				<weights offset="16309576" size="65536" />
			</blobs>
		</layer>
		<layer name="Mrelu6_stage2_L1" type="ReLU" precision="FP32" id="119">
			<input>
				<port id="0">
					<dim>1</dim>
					<dim>128</dim>
					<dim>32</dim>
					<dim>57</dim>
				</port>
			</input>
			<output>
				<port id="1">
					<dim>1</dim>
					<dim>128</dim>
					<dim>32</dim>
					<dim>57</dim>
				</port>
			</output>
		</layer>
		<layer name="Mconv7_stage2_L1" type="Convolution" precision="FP32" id="120">
			<data dilations="1,1" group="1" kernel="1,1" output="38" pads_begin="0,0" pads_end="0,0" quantization_level="I8" strides="1,1" />
			<input>
				<port id="0">
					<dim>1</dim>
					<dim>128</dim>
					<dim>32</dim>
					<dim>57</dim>
				</port>
			</input>
			<output>
				<port id="1">
					<dim>1</dim>
					<dim>38</dim>
					<dim>32</dim>
					<dim>57</dim>
				</port>
			</output>
			<blobs>
				<biases offset="16375112" size="152" />
				<weights offset="16375264" size="19456" />
			</blobs>
		</layer>
	</layers>
	<edges>
		<edge from-layer="0" from-port="0" to-layer="1" to-port="0" />
		<edge from-layer="1" from-port="1" to-layer="2" to-port="0" />
		<edge from-layer="2" from-port="1" to-layer="3" to-port="0" />
		<edge from-layer="3" from-port="1" to-layer="4" to-port="0" />
		<edge from-layer="4" from-port="1" to-layer="5" to-port="0" />
		<edge from-layer="5" from-port="1" to-layer="6" to-port="0" />
		<edge from-layer="6" from-port="1" to-layer="7" to-port="0" />
		<edge from-layer="7" from-port="1" to-layer="8" to-port="0" />
		<edge from-layer="8" from-port="1" to-layer="9" to-port="0" />
		<edge from-layer="9" from-port="1" to-layer="10" to-port="0" />
		<edge from-layer="10" from-port="1" to-layer="11" to-port="0" />
		<edge from-layer="11" from-port="1" to-layer="12" to-port="0" />
		<edge from-layer="12" from-port="1" to-layer="13" to-port="0" />
		<edge from-layer="13" from-port="1" to-layer="14" to-port="0" />
		<edge from-layer="14" from-port="1" to-layer="15" to-port="0" />
		<edge from-layer="15" from-port="1" to-layer="16" to-port="0" />
		<edge from-layer="16" from-port="1" to-layer="17" to-port="0" />
		<edge from-layer="17" from-port="1" to-layer="18" to-port="0" />
		<edge from-layer="18" from-port="1" to-layer="19" to-port="0" />
		<edge from-layer="19" from-port="1" to-layer="20" to-port="0" />
		<edge from-layer="20" from-port="1" to-layer="21" to-port="0" />
		<edge from-layer="21" from-port="1" to-layer="22" to-port="0" />
		<edge from-layer="22" from-port="1" to-layer="23" to-port="0" />
		<edge from-layer="23" from-port="1" to-layer="24" to-port="0" />
		<edge from-layer="24" from-port="1" to-layer="25" to-port="0" />
		<edge from-layer="25" from-port="1" to-layer="26" to-port="0" />
		<edge from-layer="26" from-port="1" to-layer="27" to-port="0" />
		<edge from-layer="27" from-port="1" to-layer="28" to-port="0" />
		<edge from-layer="28" from-port="1" to-layer="29" to-port="0" />
		<edge from-layer="29" from-port="1" to-layer="30" to-port="0" />
		<edge from-layer="30" from-port="1" to-layer="31" to-port="0" />
		<edge from-layer="31" from-port="1" to-layer="32" to-port="0" />
		<edge from-layer="32" from-port="1" to-layer="33" to-port="0" />
		<edge from-layer="33" from-port="1" to-layer="34" to-port="0" />
		<edge from-layer="34" from-port="1" to-layer="35" to-port="0" />
		<edge from-layer="35" from-port="1" to-layer="36" to-port="0" />
		<edge from-layer="36" from-port="1" to-layer="37" to-port="0" />
		<edge from-layer="37" from-port="1" to-layer="38" to-port="0" />
		<edge from-layer="38" from-port="1" to-layer="39" to-port="0" />
		<edge from-layer="39" from-port="1" to-layer="40" to-port="0" />
		<edge from-layer="40" from-port="1" to-layer="41" to-port="0" />
		<edge from-layer="41" from-port="1" to-layer="42" to-port="0" />
		<edge from-layer="42" from-port="1" to-layer="43" to-port="0" />
		<edge from-layer="43" from-port="1" to-layer="44" to-port="0" />
		<edge from-layer="44" from-port="1" to-layer="45" to-port="0" />
		<edge from-layer="45" from-port="1" to-layer="46" to-port="0" />
		<edge from-layer="46" from-port="1" to-layer="47" to-port="0" />
		<edge from-layer="47" from-port="1" to-layer="48" to-port="0" />
		<edge from-layer="48" from-port="1" to-layer="49" to-port="0" />
		<edge from-layer="49" from-port="1" to-layer="50" to-port="0" />
		<edge from-layer="49" from-port="1" to-layer="64" to-port="0" />
		<edge from-layer="50" from-port="1" to-layer="51" to-port="0" />
		<edge from-layer="51" from-port="1" to-layer="52" to-port="0" />
		<edge from-layer="52" from-port="1" to-layer="53" to-port="0" />
		<edge from-layer="53" from-port="1" to-layer="54" to-port="0" />
		<edge from-layer="54" from-port="1" to-layer="55" to-port="0" />
		<edge from-layer="55" from-port="1" to-layer="56" to-port="0" />
		<edge from-layer="56" from-port="1" to-layer="57" to-port="0" />
		<edge from-layer="57" from-port="1" to-layer="58" to-port="0" />
		<edge from-layer="58" from-port="1" to-layer="59" to-port="0" />
		<edge from-layer="59" from-port="1" to-layer="60" to-port="0" />
		<edge from-layer="60" from-port="1" to-layer="61" to-port="0" />
		<edge from-layer="61" from-port="1" to-layer="62" to-port="0" />
		<edge from-layer="62" from-port="1" to-layer="63" to-port="0" />
		<edge from-layer="63" from-port="1" to-layer="64" to-port="1" />
		<edge from-layer="64" from-port="2" to-layer="65" to-port="0" />
		<edge from-layer="65" from-port="1" to-layer="66" to-port="0" />
		<edge from-layer="66" from-port="1" to-layer="79" to-port="2" />
		<edge from-layer="66" from-port="1" to-layer="67" to-port="0" />
		<edge from-layer="67" from-port="1" to-layer="68" to-port="0" />
		<edge from-layer="68" from-port="1" to-layer="69" to-port="0" />
		<edge from-layer="69" from-port="1" to-layer="70" to-port="0" />
		<edge from-layer="70" from-port="1" to-layer="71" to-port="0" />
		<edge from-layer="71" from-port="1" to-layer="72" to-port="0" />
		<edge from-layer="72" from-port="1" to-layer="76" to-port="0" />
		<edge from-layer="72" from-port="1" to-layer="73" to-port="0" />
		<edge from-layer="73" from-port="1" to-layer="74" to-port="0" />
		<edge from-layer="74" from-port="1" to-layer="75" to-port="0" />
		<edge from-layer="75" from-port="1" to-layer="79" to-port="1" />
		<edge from-layer="76" from-port="1" to-layer="77" to-port="0" />
		<edge from-layer="77" from-port="1" to-layer="78" to-port="0" />
		<edge from-layer="78" from-port="1" to-layer="79" to-port="0" />
		<edge from-layer="79" from-port="3" to-layer="80" to-port="0" />
		<edge from-layer="80" from-port="1" to-layer="81" to-port="0" />
		<edge from-layer="81" from-port="1" to-layer="82" to-port="0" />
		<edge from-layer="81" from-port="1" to-layer="86" to-port="0" />
		<edge from-layer="82" from-port="1" to-layer="83" to-port="0" />
		<edge from-layer="83" from-port="1" to-layer="84" to-port="0" />
		<edge from-layer="84" from-port="1" to-layer="85" to-port="0" />
		<edge from-layer="85" from-port="1" to-layer="86" to-port="1" />
		<edge from-layer="86" from-port="2" to-layer="87" to-port="0" />
		<edge from-layer="87" from-port="1" to-layer="88" to-port="0" />
		<edge from-layer="88" from-port="1" to-layer="89" to-port="0" />
		<edge from-layer="88" from-port="1" to-layer="93" to-port="0" />
		<edge from-layer="89" from-port="1" to-layer="90" to-port="0" />
		<edge from-layer="90" from-port="1" to-layer="91" to-port="0" />
		<edge from-layer="91" from-port="1" to-layer="92" to-port="0" />
		<edge from-layer="92" from-port="1" to-layer="93" to-port="1" />
		<edge from-layer="93" from-port="2" to-layer="94" to-port="0" />
		<edge from-layer="94" from-port="1" to-layer="95" to-port="0" />
		<edge from-layer="95" from-port="1" to-layer="96" to-port="0" />
		<edge from-layer="95" from-port="1" to-layer="100" to-port="0" />
		<edge from-layer="96" from-port="1" to-layer="97" to-port="0" />
		<edge from-layer="97" from-port="1" to-layer="98" to-port="0" />
		<edge from-layer="98" from-port="1" to-layer="99" to-port="0" />
		<edge from-layer="99" from-port="1" to-layer="100" to-port="1" />
		<edge from-layer="100" from-port="2" to-layer="101" to-port="0" />
		<edge from-layer="101" from-port="1" to-layer="102" to-port="0" />
		<edge from-layer="102" from-port="1" to-layer="103" to-port="0" />
		<edge from-layer="102" from-port="1" to-layer="107" to-port="0" />
		<edge from-layer="103" from-port="1" to-layer="104" to-port="0" />
		<edge from-layer="104" from-port="1" to-layer="105" to-port="0" />
		<edge from-layer="105" from-port="1" to-layer="106" to-port="0" />
		<edge from-layer="106" from-port="1" to-layer="107" to-port="1" />
		<edge from-layer="107" from-port="2" to-layer="108" to-port="0" />
		<edge from-layer="108" from-port="1" to-layer="109" to-port="0" />
		<edge from-layer="109" from-port="1" to-layer="110" to-port="0" />
		<edge from-layer="109" from-port="1" to-layer="114" to-port="0" />
		<edge from-layer="110" from-port="1" to-layer="111" to-port="0" />
		<edge from-layer="111" from-port="1" to-layer="112" to-port="0" />
		<edge from-layer="112" from-port="1" to-layer="113" to-port="0" />
		<edge from-layer="113" from-port="1" to-layer="114" to-port="1" />
		<edge from-layer="114" from-port="2" to-layer="118" to-port="0" />
		<edge from-layer="114" from-port="2" to-layer="115" to-port="0" />
		<edge from-layer="115" from-port="1" to-layer="116" to-port="0" />
		<edge from-layer="116" from-port="1" to-layer="117" to-port="0" />
		<edge from-layer="118" from-port="1" to-layer="119" to-port="0" />
		<edge from-layer="119" from-port="1" to-layer="120" to-port="0" />
	</edges>
	<statistics>
		<layer>
			<name>Mconv1_stage2_L1/3x3</name>
			<min>… -6.483900</min>
			<max>… 5.250073</max>
		</layer>
		<layer>
			<name>Mconv1_stage2_L1/3x3/2</name>
			<min>… -2.908318</min>
			<max>… 5.021787</max>
		</layer>
		<layer>
			<name>Mconv1_stage2_L1/5x5/res</name>
			<min>… -0.000000</min>
			<max>… 5.384261</max>
		</layer>
		<layer>
			<name>Mconv1_stage2_L1/sq</name>
			<min>… -1.830331</min>
			<max>… 2.500921</max>
		</layer>
		<layer>
			<name>Mconv2_stage2_L1/3x3</name>
			<min>… -4.369395</min>
			<max>… 4.720814</max>
		</layer>
		<layer>
			<name>Mconv2_stage2_L1/3x3/2</name>
			<min>… -3.666042</min>
			<max>… 4.874332</max>
		</layer>
		<layer>
			<name>Mconv2_stage2_L1/5x5/res</name>
			<min>… -0.000000</min>
			<max>… 7.834121</max>
		</layer>
		<layer>
			<name>Mconv2_stage2_L1/sq</name>
			<min>… -1.328157</min>
			<max>… 4.341511</max>
		</layer>
		<layer>
			<name>Mconv3_stage2_L1/3x3</name>
			<min>… -5.342293</min>
			<max>… 5.988583</max>
		</layer>
		<layer>
			<name>Mconv3_stage2_L1/3x3/2</name>
			<min>… -5.068432</min>
			<max>… 4.430592</max>
		</layer>
		<layer>
			<name>Mconv3_stage2_L1/5x5/res</name>
			<min>… -0.000000</min>
			<max>… 5.256580</max>
		</layer>
		<layer>
			<name>Mconv3_stage2_L1/sq</name>
			<min>… -3.544457</min>
			<max>… 3.442643</max>
		</layer>
		<layer>
			<name>Mconv4_stage2_L1/3x3</name>
			<min>… -4.815634</min>
			<max>… 5.972811</max>
		</layer>
		<layer>
			<name>Mconv4_stage2_L1/3x3/2</name>
			<min>… -4.925193</min>
			<max>… 3.840934</max>
		</layer>
		<layer>
			<name>Mconv4_stage2_L1/5x5/res</name>
			<min>… -0.000000</min>
			<max>… 4.614889</max>
		</layer>
		<layer>
			<name>Mconv4_stage2_L1/sq</name>
			<min>… -3.210361</min>
			<max>… 3.729118</max>
		</layer>
		<layer>
			<name>Mconv5_stage2_L1/3x3</name>
			<min>… -5.394705</min>
			<max>… 5.150893</max>
		</layer>
		<layer>
			<name>Mconv5_stage2_L1/3x3/2</name>
			<min>… -3.059864</min>
			<max>… 7.138205</max>
		</layer>
		<layer>
			<name>Mconv5_stage2_L1/5x5/res</name>
			<min>… -0.000000</min>
			<max>… 7.310038</max>
		</layer>
		<layer>
			<name>Mconv5_stage2_L1/sq</name>
			<min>… -4.348104</min>
			<max>… 3.811518</max>
		</layer>
		<layer>
			<name>Mconv6_stage2_L1</name>
			<min>… -2.704454</min>
			<max>… 1.473346</max>
		</layer>
		<layer>
			<name>Mconv6_stage2_L2</name>
			<min>… -3.177364</min>
			<max>… -0.085751</max>
		</layer>
		<layer>
			<name>Mconv7_stage2_L1</name>
			<min>… -0.413073</min>
			<max>… 0.540888</max>
		</layer>
		<layer>
			<name>Mconv7_stage2_L2</name>
			<min>… -0.054877</min>
			<max>… 0.998918</max>
		</layer>
		<layer>
			<name>Mrelu6_stage2_L1</name>
			<min>… -0.000000</min>
			<max>… 1.473346</max>
		</layer>
		<layer>
			<name>Mrelu6_stage2_L2</name>
			<min>… -0.000000</min>
			<max>… -0.000000</max>
		</layer>
		<layer>
			<name>Mul_/Fused_Mul_/FusedScaleShift_</name>
			<min>-0.501952, -0.501952, -0.501952</min>
			<max>0.498030, 0.498030, 0.498030</max>
		</layer>
		<layer>
			<name>concat_stage2</name>
			<min>… -0.000000</min>
			<max>… 4.323742</max>
		</layer>
		<layer>
			<name>conv1</name>
			<min>… -3.203424</min>
			<max>… 4.837413</max>
		</layer>
		<layer>
			<name>conv2_1/dw</name>
			<min>… -2.636217</min>
			<max>… 7.587100</max>
		</layer>
		<layer>
			<name>conv2_1/sep</name>
			<min>… -9.122624</min>
			<max>… 13.308550</max>
		</layer>
		<layer>
			<name>conv2_2/dw</name>
			<min>… -0.194430</min>
			<max>… 14.076693</max>
		</layer>
		<layer>
			<name>conv2_2/sep</name>
			<min>… -13.362928</min>
			<max>… 6.386341</max>
		</layer>
		<layer>
			<name>conv3_1/dw</name>
			<min>… -0.710342</min>
			<max>… 4.850697</max>
		</layer>
		<layer>
			<name>conv3_1/sep</name>
			<min>… -0.161764</min>
			<max>… 2.911552</max>
		</layer>
		<layer>
			<name>conv3_2/dw</name>
			<min>… -5.725256</min>
			<max>… 8.438919</max>
		</layer>
		<layer>
			<name>conv3_2/sep</name>
			<min>… -0.445860</min>
			<max>… 4.202834</max>
		</layer>
		<layer>
			<name>conv4_1/dw</name>
			<min>… -6.363988</min>
			<max>… 5.401932</max>
		</layer>
		<layer>
			<name>conv4_1/sep</name>
			<min>… -4.267328</min>
			<max>… 4.735588</max>
		</layer>
		<layer>
			<name>conv4_2/dw</name>
			<min>… -3.404396</min>
			<max>… 2.580182</max>
		</layer>
		<layer>
			<name>conv4_2/sep</name>
			<min>… -4.412922</min>
			<max>… 5.885201</max>
		</layer>
		<layer>
			<name>conv4_3_CPM/al</name>
			<min>… -5.166666</min>
			<max>… 2.533800</max>
		</layer>
		<layer>
			<name>conv4_3_CPM/dw1</name>
			<min>… -0.213126</min>
			<max>… 0.175750</max>
		</layer>
		<layer>
			<name>conv4_3_CPM/dw1/1x1</name>
			<min>… -0.147324</min>
			<max>… 0.091351</max>
		</layer>
		<layer>
			<name>conv4_3_CPM/dw2</name>
			<min>… -0.100379</min>
			<max>… 0.064941</max>
		</layer>
		<layer>
			<name>conv4_3_CPM/dw2/1x1</name>
			<min>… -0.187815</min>
			<max>… 0.066213</max>
		</layer>
		<layer>
			<name>conv4_3_CPM/dw3</name>
			<min>… -0.056983</min>
			<max>… 0.071726</max>
		</layer>
		<layer>
			<name>conv4_3_CPM/inc</name>
			<min>… -0.083723</min>
			<max>… 1.019102</max>
		</layer>
		<layer>
			<name>conv4_3_CPM/red</name>
			<min>… -0.299175</min>
			<max>… 0.250269</max>
		</layer>
		<layer>
			<name>conv4_3_CPM/res</name>
			<min>… -0.771642</min>
			<max>… 3.144090</max>
		</layer>
		<layer>
			<name>conv4_4_CPM</name>
			<min>… -3.781753</min>
			<max>… 4.323742</max>
		</layer>
		<layer>
			<name>conv5_1/dw</name>
			<min>… -8.259794</min>
			<max>… 1.709309</max>
		</layer>
		<layer>
			<name>conv5_1/sep</name>
			<min>… -1.324577</min>
			<max>… 4.855496</max>
		</layer>
		<layer>
			<name>conv5_1_CPM_L1</name>
			<min>… -1.648527</min>
			<max>… 1.843516</max>
		</layer>
		<layer>
			<name>conv5_2/dw</name>
			<min>… -2.106017</min>
			<max>… 8.691385</max>
		</layer>
		<layer>
			<name>conv5_2/sep</name>
			<min>… -7.047496</min>
			<max>… 5.331542</max>
		</layer>
		<layer>
			<name>conv5_2_CPM_L1</name>
			<min>… -1.504960</min>
			<max>… 1.765944</max>
		</layer>
		<layer>
			<name>conv5_3/dw</name>
			<min>… -0.479526</min>
			<max>… 15.266074</max>
		</layer>
		<layer>
			<name>conv5_3/sep</name>
			<min>… -3.916328</min>
			<max>… 8.810192</max>
		</layer>
		<layer>
			<name>conv5_3_CPM_L1</name>
			<min>… -1.666497</min>
			<max>… 2.850998</max>
		</layer>
		<layer>
			<name>conv5_4/dw</name>
			<min>… -11.330377</min>
			<max>… 11.421355</max>
		</layer>
		<layer>
			<name>conv5_4/sep</name>
			<min>… -8.839259</min>
			<max>… 3.300369</max>
		</layer>
		<layer>
			<name>conv5_4_CPM_L1</name>
			<min>… -1.458903</min>
			<max>… 0.829713</max>
		</layer>
		<layer>
			<name>conv5_4_CPM_L2</name>
			<min>… -0.572671</min>
			<max>… 0.368286</max>
		</layer>
		<layer>
			<name>conv5_5/dw</name>
			<min>… -1.253214</min>
			<max>… 14.592668</max>
		</layer>
		<layer>
			<name>conv5_5/sep</name>
			<min>… -8.446544</min>
			<max>… 5.351919</max>
		</layer>
		<layer>
			<name>conv5_5_CPM_L1</name>
			<min>… -0.440802</min>
			<max>… 0.501246</max>
		</layer>
		<layer>
			<name>conv5_5_CPM_L2</name>
			<min>… -0.046335</min>
			<max>… 1.034167</max>
		</layer>
		<layer>
			<name>data</name>
			<min>-172.172623, -0.487593, -141.488464</min>
			<max>1209009612681038303883533234470912.000000, 0.527166, 57.432785</max>
		</layer>
		<layer>
			<name>relu/Mconv1_stage2_L1/3x3</name>
			<min>… -0.000000</min>
			<max>… 5.250073</max>
		</layer>
		<layer>
			<name>relu/Mconv1_stage2_L1/3x3/2</name>
			<min>… -0.000000</min>
			<max>… 5.021787</max>
		</layer>
		<layer>
			<name>relu/Mconv1_stage2_L1/sq</name>
			<min>… -0.000000</min>
			<max>… 2.500921</max>
		</layer>
		<layer>
			<name>relu/Mconv2_stage2_L1/3x3</name>
			<min>… -0.000000</min>
			<max>… 4.720814</max>
		</layer>
		<layer>
			<name>relu/Mconv2_stage2_L1/3x3/2</name>
			<min>… -0.000000</min>
			<max>… 4.874332</max>
		</layer>
		<layer>
			<name>relu/Mconv2_stage2_L1/sq</name>
			<min>… -0.000000</min>
			<max>… 4.341511</max>
		</layer>
		<layer>
			<name>relu/Mconv3_stage2_L1/3x3</name>
			<min>… -0.000000</min>
			<max>… 5.988583</max>
		</layer>
		<layer>
			<name>relu/Mconv3_stage2_L1/3x3/2</name>
			<min>… -0.000000</min>
			<max>… 4.430592</max>
		</layer>
		<layer>
			<name>relu/Mconv3_stage2_L1/sq</name>
			<min>… -0.000000</min>
			<max>… 3.442643</max>
		</layer>
		<layer>
			<name>relu/Mconv4_stage2_L1/3x3</name>
			<min>… -0.000000</min>
			<max>… 5.972811</max>
		</layer>
		<layer>
			<name>relu/Mconv4_stage2_L1/3x3/2</name>
			<min>… -0.000000</min>
			<max>… 3.840934</max>
		</layer>
		<layer>
			<name>relu/Mconv4_stage2_L1/sq</name>
			<min>… -0.000000</min>
			<max>… 3.729118</max>
		</layer>
		<layer>
			<name>relu/Mconv5_stage2_L1/3x3</name>
			<min>… -0.000000</min>
			<max>… 5.150893</max>
		</layer>
		<layer>
			<name>relu/Mconv5_stage2_L1/3x3/2</name>
			<min>… -0.000000</min>
			<max>… 7.138205</max>
		</layer>
		<layer>
			<name>relu/Mconv5_stage2_L1/sq</name>
			<min>… -0.000000</min>
			<max>… 3.811518</max>
		</layer>
		<layer>
			<name>relu/conv4_3_CPM/dw1/1x1</name>
			<min>… -0.136986</min>
			<max>… 0.091351</max>
		</layer>
		<layer>
			<name>relu/conv4_3_CPM/dw2/1x1</name>
			<min>… -0.171232</min>
			<max>… 0.066213</max>
		</layer>
		<layer>
			<name>relu1</name>
			<min>… -0.000000</min>
			<max>… 4.837413</max>
		</layer>
		<layer>
			<name>relu2_1/dw</name>
			<min>… -0.000000</min>
			<max>… 7.587100</max>
		</layer>
		<layer>
			<name>relu2_1/sep</name>
			<min>… -0.000000</min>
			<max>… 13.308550</max>
		</layer>
		<layer>
			<name>relu2_2/dw</name>
			<min>… -0.000000</min>
			<max>… 14.076693</max>
		</layer>
		<layer>
			<name>relu2_2/sep</name>
			<min>… -0.000000</min>
			<max>… 6.386341</max>
		</layer>
		<layer>
			<name>relu3_1/dw</name>
			<min>… -0.000000</min>
			<max>… 4.850697</max>
		</layer>
		<layer>
			<name>relu3_1/sep</name>
			<min>… -0.000000</min>
			<max>… 2.911552</max>
		</layer>
		<layer>
			<name>relu3_2/dw</name>
			<min>… -0.000000</min>
			<max>… 8.438919</max>
		</layer>
		<layer>
			<name>relu3_2/sep</name>
			<min>… -0.000000</min>
			<max>… 4.202834</max>
		</layer>
		<layer>
			<name>relu4_1/dw</name>
			<min>… -0.000000</min>
			<max>… 5.401932</max>
		</layer>
		<layer>
			<name>relu4_1/sep</name>
			<min>… -0.000000</min>
			<max>… 4.735588</max>
		</layer>
		<layer>
			<name>relu4_2/dw</name>
			<min>… -0.000000</min>
			<max>… 2.580182</max>
		</layer>
		<layer>
			<name>relu4_2/sep</name>
			<min>… -0.000000</min>
			<max>… 5.885201</max>
		</layer>
		<layer>
			<name>relu4_3_CPM/al</name>
			<min>… -0.994296</min>
			<max>… 2.533800</max>
		</layer>
		<layer>
			<name>relu4_3_CPM/dw1</name>
			<min>… -0.191946</min>
			<max>… 0.175750</max>
		</layer>
		<layer>
			<name>relu4_3_CPM/dw2</name>
			<min>… -0.095505</min>
			<max>… 0.064941</max>
		</layer>
		<layer>
			<name>relu4_3_CPM/dw3</name>
			<min>… -0.055390</min>
			<max>… 0.071726</max>
		</layer>
		<layer>
			<name>relu4_3_CPM/inc</name>
			<min>… -0.080314</min>
			<max>… 1.019102</max>
		</layer>
		<layer>
			<name>relu4_3_CPM/red</name>
			<min>… -0.258570</min>
			<max>… 0.250269</max>
		</layer>
		<layer>
			<name>relu4_4_CPM</name>
			<min>… -0.000000</min>
			<max>… 4.323742</max>
		</layer>
		<layer>
			<name>relu5_1/dw</name>
			<min>… -0.000000</min>
			<max>… 1.709309</max>
		</layer>
		<layer>
			<name>relu5_1/sep</name>
			<min>… -0.000000</min>
			<max>… 4.855496</max>
		</layer>
		<layer>
			<name>relu5_1_CPM_L1</name>
			<min>… -0.000000</min>
			<max>… 1.843516</max>
		</layer>
		<layer>
			<name>relu5_2/dw</name>
			<min>… -0.000000</min>
			<max>… 8.691385</max>
		</layer>
		<layer>
			<name>relu5_2/sep</name>
			<min>… -0.000000</min>
			<max>… 5.331542</max>
		</layer>
		<layer>
			<name>relu5_2_CPM_L1</name>
			<min>… -0.000000</min>
			<max>… 1.765944</max>
		</layer>
		<layer>
			<name>relu5_3/dw</name>
			<min>… -0.000000</min>
			<max>… 15.266074</max>
		</layer>
		<layer>
			<name>relu5_3/sep</name>
			<min>… -0.000000</min>
			<max>… 8.810192</max>
		</layer>
		<layer>
			<name>relu5_3_CPM_L1</name>
			<min>… -0.000000</min>
			<max>… 2.850998</max>
		</layer>
		<layer>
			<name>relu5_4/dw</name>
			<min>… -0.000000</min>
			<max>… 11.421355</max>
		</layer>
		<layer>
			<name>relu5_4/sep</name>
			<min>… -0.000000</min>
			<max>… 3.300369</max>
		</layer>
		<layer>
			<name>relu5_4_CPM_L1</name>
			<min>… -0.000000</min>
			<max>… 0.829713</max>
		</layer>
		<layer>
			<name>relu5_4_CPM_L2</name>
			<min>… -0.000000</min>
			<max>… 0.368286</max>
		</layer>
		<layer>
			<name>relu5_5/dw</name>
			<min>… -0.000000</min>
			<max>… 14.592668</max>
		</layer>
		<layer>
			<name>relu5_5/sep</name>
			<min>… -0.000000</min>
			<max>… 5.351919</max>
		</layer>
	</statistics>
</net>
