<?xml version="1.0"?>
<net name="vehicle-attributes-recognition-barrier-0039" version="6" batch="1">
	<layers>
		<layer name="input" type="Input" precision="FP32" id="0">
			<output>
				<port id="0">
					<dim>1</dim>
					<dim>3</dim>
					<dim>72</dim>
					<dim>72</dim>
				</port>
			</output>
		</layer>
		<layer name="Mul_/Fused_Mul_/FusedScaleShift_" type="ScaleShift" precision="FP32" id="1">
			<data broadcast="0" />
			<input>
				<port id="0">
					<dim>1</dim>
					<dim>3</dim>
					<dim>72</dim>
					<dim>72</dim>
				</port>
			</input>
			<output>
				<port id="1">
					<dim>1</dim>
					<dim>3</dim>
					<dim>72</dim>
					<dim>72</dim>
				</port>
			</output>
			<blobs>
				<biases offset="0" size="12" />
				<weights offset="12" size="12" />
			</blobs>
		</layer>
		<layer name="Convolution1" type="Convolution" precision="FP32" id="2">
			<data dilations="1,1" group="1" kernel="7,7" output="64" pads_begin="3,3" pads_end="3,3" quantization_level="FP32" strides="2,2" />
			<input>
				<port id="0">
					<dim>1</dim>
					<dim>3</dim>
					<dim>72</dim>
					<dim>72</dim>
				</port>
			</input>
			<output>
				<port id="1">
					<dim>1</dim>
					<dim>64</dim>
					<dim>36</dim>
					<dim>36</dim>
				</port>
			</output>
			<blobs>
				<biases offset="24" size="256" />
				<weights offset="280" size="37632" />
			</blobs>
		</layer>
		<layer name="ReLU1" type="ReLU" precision="FP32" id="3">
			<input>
				<port id="0">
					<dim>1</dim>
					<dim>64</dim>
					<dim>36</dim>
					<dim>36</dim>
				</port>
			</input>
			<output>
				<port id="1">
					<dim>1</dim>
					<dim>64</dim>
					<dim>36</dim>
					<dim>36</dim>
				</port>
			</output>
		</layer>
		<layer name="Pooling1" type="Pooling" precision="FP32" id="4">
			<data exclude-pad="true" kernel="3,3" pads_begin="0,0" pads_end="0,0" pool-method="max" rounding_type="ceil" strides="2,2" />
			<input>
				<port id="0">
					<dim>1</dim>
					<dim>64</dim>
					<dim>36</dim>
					<dim>36</dim>
				</port>
			</input>
			<output>
				<port id="1">
					<dim>1</dim>
					<dim>64</dim>
					<dim>18</dim>
					<dim>18</dim>
				</port>
			</output>
		</layer>
		<layer name="Convolution2" type="Convolution" precision="FP32" id="5">
			<data dilations="1,1" group="1" kernel="3,3" output="64" pads_begin="1,1" pads_end="1,1" quantization_level="FP32" strides="1,1" />
			<input>
				<port id="0">
					<dim>1</dim>
					<dim>64</dim>
					<dim>18</dim>
					<dim>18</dim>
				</port>
			</input>
			<output>
				<port id="1">
					<dim>1</dim>
					<dim>64</dim>
					<dim>18</dim>
					<dim>18</dim>
				</port>
			</output>
			<blobs>
				<biases offset="37912" size="256" />
				<weights offset="38168" size="147456" />
			</blobs>
		</layer>
		<layer name="ReLU2" type="ReLU" precision="FP32" id="6">
			<input>
				<port id="0">
					<dim>1</dim>
					<dim>64</dim>
					<dim>18</dim>
					<dim>18</dim>
				</port>
			</input>
			<output>
				<port id="1">
					<dim>1</dim>
					<dim>64</dim>
					<dim>18</dim>
					<dim>18</dim>
				</port>
			</output>
		</layer>
		<layer name="Convolution3" type="Convolution" precision="FP32" id="7">
			<data dilations="1,1" group="1" kernel="3,3" output="64" pads_begin="1,1" pads_end="1,1" quantization_level="I8" strides="1,1" />
			<input>
				<port id="0">
					<dim>1</dim>
					<dim>64</dim>
					<dim>18</dim>
					<dim>18</dim>
				</port>
			</input>
			<output>
				<port id="1">
					<dim>1</dim>
					<dim>64</dim>
					<dim>18</dim>
					<dim>18</dim>
				</port>
			</output>
			<blobs>
				<weights offset="185624" size="147456" />
			</blobs>
		</layer>
		<layer name="Eltwise1" type="Eltwise" precision="FP32" id="8">
			<data operation="sum" />
			<input>
				<port id="0">
					<dim>1</dim>
					<dim>64</dim>
					<dim>18</dim>
					<dim>18</dim>
				</port>
				<port id="1">
					<dim>1</dim>
					<dim>64</dim>
					<dim>18</dim>
					<dim>18</dim>
				</port>
			</input>
			<output>
				<port id="2">
					<dim>1</dim>
					<dim>64</dim>
					<dim>18</dim>
					<dim>18</dim>
				</port>
			</output>
		</layer>
		<layer name="Mul_941/Fused_Mul_/FusedScaleShift_" type="ScaleShift" precision="FP32" id="9">
			<data broadcast="0" />
			<input>
				<port id="0">
					<dim>1</dim>
					<dim>64</dim>
					<dim>18</dim>
					<dim>18</dim>
				</port>
			</input>
			<output>
				<port id="1">
					<dim>1</dim>
					<dim>64</dim>
					<dim>18</dim>
					<dim>18</dim>
				</port>
			</output>
			<blobs>
				<biases offset="333080" size="256" />
				<weights offset="333336" size="256" />
			</blobs>
		</layer>
		<layer name="ReLU3" type="ReLU" precision="FP32" id="10">
			<input>
				<port id="0">
					<dim>1</dim>
					<dim>64</dim>
					<dim>18</dim>
					<dim>18</dim>
				</port>
			</input>
			<output>
				<port id="1">
					<dim>1</dim>
					<dim>64</dim>
					<dim>18</dim>
					<dim>18</dim>
				</port>
			</output>
		</layer>
		<layer name="Convolution6" type="Convolution" precision="FP32" id="11">
			<data dilations="1,1" group="1" kernel="1,1" output="128" pads_begin="0,0" pads_end="0,0" quantization_level="I8" strides="2,2" />
			<input>
				<port id="0">
					<dim>1</dim>
					<dim>64</dim>
					<dim>18</dim>
					<dim>18</dim>
				</port>
			</input>
			<output>
				<port id="1">
					<dim>1</dim>
					<dim>128</dim>
					<dim>9</dim>
					<dim>9</dim>
				</port>
			</output>
			<blobs>
				<weights offset="333592" size="32768" />
			</blobs>
		</layer>
		<layer name="Convolution4" type="Convolution" precision="FP32" id="12">
			<data dilations="1,1" group="1" kernel="3,3" output="128" pads_begin="1,1" pads_end="1,1" quantization_level="FP32" strides="2,2" />
			<input>
				<port id="0">
					<dim>1</dim>
					<dim>64</dim>
					<dim>18</dim>
					<dim>18</dim>
				</port>
			</input>
			<output>
				<port id="1">
					<dim>1</dim>
					<dim>128</dim>
					<dim>9</dim>
					<dim>9</dim>
				</port>
			</output>
			<blobs>
				<biases offset="366360" size="512" />
				<weights offset="366872" size="294912" />
			</blobs>
		</layer>
		<layer name="ReLU4" type="ReLU" precision="FP32" id="13">
			<input>
				<port id="0">
					<dim>1</dim>
					<dim>128</dim>
					<dim>9</dim>
					<dim>9</dim>
				</port>
			</input>
			<output>
				<port id="1">
					<dim>1</dim>
					<dim>128</dim>
					<dim>9</dim>
					<dim>9</dim>
				</port>
			</output>
		</layer>
		<layer name="Convolution5" type="Convolution" precision="FP32" id="14">
			<data dilations="1,1" group="1" kernel="3,3" output="128" pads_begin="1,1" pads_end="1,1" quantization_level="I8" strides="1,1" />
			<input>
				<port id="0">
					<dim>1</dim>
					<dim>128</dim>
					<dim>9</dim>
					<dim>9</dim>
				</port>
			</input>
			<output>
				<port id="1">
					<dim>1</dim>
					<dim>128</dim>
					<dim>9</dim>
					<dim>9</dim>
				</port>
			</output>
			<blobs>
				<weights offset="661784" size="589824" />
			</blobs>
		</layer>
		<layer name="Eltwise2" type="Eltwise" precision="FP32" id="15">
			<data operation="sum" />
			<input>
				<port id="0">
					<dim>1</dim>
					<dim>128</dim>
					<dim>9</dim>
					<dim>9</dim>
				</port>
				<port id="1">
					<dim>1</dim>
					<dim>128</dim>
					<dim>9</dim>
					<dim>9</dim>
				</port>
			</input>
			<output>
				<port id="2">
					<dim>1</dim>
					<dim>128</dim>
					<dim>9</dim>
					<dim>9</dim>
				</port>
			</output>
		</layer>
		<layer name="Mul_938/Fused_Mul_/FusedScaleShift_" type="ScaleShift" precision="FP32" id="16">
			<data broadcast="0" />
			<input>
				<port id="0">
					<dim>1</dim>
					<dim>128</dim>
					<dim>9</dim>
					<dim>9</dim>
				</port>
			</input>
			<output>
				<port id="1">
					<dim>1</dim>
					<dim>128</dim>
					<dim>9</dim>
					<dim>9</dim>
				</port>
			</output>
			<blobs>
				<biases offset="1251608" size="512" />
				<weights offset="1252120" size="512" />
			</blobs>
		</layer>
		<layer name="ReLU5" type="ReLU" precision="FP32" id="17">
			<input>
				<port id="0">
					<dim>1</dim>
					<dim>128</dim>
					<dim>9</dim>
					<dim>9</dim>
				</port>
			</input>
			<output>
				<port id="1">
					<dim>1</dim>
					<dim>128</dim>
					<dim>9</dim>
					<dim>9</dim>
				</port>
			</output>
		</layer>
		<layer name="Convolution9_" type="Convolution" precision="FP32" id="18">
			<data dilations="1,1" group="1" kernel="1,1" output="128" pads_begin="0,0" pads_end="0,0" quantization_level="I8" strides="2,2" />
			<input>
				<port id="0">
					<dim>1</dim>
					<dim>128</dim>
					<dim>9</dim>
					<dim>9</dim>
				</port>
			</input>
			<output>
				<port id="1">
					<dim>1</dim>
					<dim>128</dim>
					<dim>5</dim>
					<dim>5</dim>
				</port>
			</output>
			<blobs>
				<weights offset="1252632" size="65536" />
			</blobs>
		</layer>
		<layer name="Convolution7_" type="Convolution" precision="FP32" id="19">
			<data dilations="1,1" group="1" kernel="3,3" output="128" pads_begin="1,1" pads_end="1,1" quantization_level="I8" strides="2,2" />
			<input>
				<port id="0">
					<dim>1</dim>
					<dim>128</dim>
					<dim>9</dim>
					<dim>9</dim>
				</port>
			</input>
			<output>
				<port id="1">
					<dim>1</dim>
					<dim>128</dim>
					<dim>5</dim>
					<dim>5</dim>
				</port>
			</output>
			<blobs>
				<biases offset="1318168" size="512" />
				<weights offset="1318680" size="589824" />
			</blobs>
		</layer>
		<layer name="ReLU6_" type="ReLU" precision="FP32" id="20">
			<input>
				<port id="0">
					<dim>1</dim>
					<dim>128</dim>
					<dim>5</dim>
					<dim>5</dim>
				</port>
			</input>
			<output>
				<port id="1">
					<dim>1</dim>
					<dim>128</dim>
					<dim>5</dim>
					<dim>5</dim>
				</port>
			</output>
		</layer>
		<layer name="Convolution8_" type="Convolution" precision="FP32" id="21">
			<data dilations="1,1" group="1" kernel="3,3" output="128" pads_begin="1,1" pads_end="1,1" quantization_level="I8" strides="1,1" />
			<input>
				<port id="0">
					<dim>1</dim>
					<dim>128</dim>
					<dim>5</dim>
					<dim>5</dim>
				</port>
			</input>
			<output>
				<port id="1">
					<dim>1</dim>
					<dim>128</dim>
					<dim>5</dim>
					<dim>5</dim>
				</port>
			</output>
			<blobs>
				<weights offset="1908504" size="589824" />
			</blobs>
		</layer>
		<layer name="Eltwise3" type="Eltwise" precision="FP32" id="22">
			<data operation="sum" />
			<input>
				<port id="0">
					<dim>1</dim>
					<dim>128</dim>
					<dim>5</dim>
					<dim>5</dim>
				</port>
				<port id="1">
					<dim>1</dim>
					<dim>128</dim>
					<dim>5</dim>
					<dim>5</dim>
				</port>
			</input>
			<output>
				<port id="2">
					<dim>1</dim>
					<dim>128</dim>
					<dim>5</dim>
					<dim>5</dim>
				</port>
			</output>
		</layer>
		<layer name="conv_type" type="Convolution" precision="FP32" id="23">
			<data dilations="1,1" group="1" kernel="1,1" output="4" pads_begin="0,0" pads_end="0,0" quantization_level="FP32" strides="1,1" />
			<input>
				<port id="0">
					<dim>1</dim>
					<dim>128</dim>
					<dim>5</dim>
					<dim>5</dim>
				</port>
			</input>
			<output>
				<port id="1">
					<dim>1</dim>
					<dim>4</dim>
					<dim>5</dim>
					<dim>5</dim>
				</port>
			</output>
			<blobs>
				<biases offset="2498328" size="16" />
				<weights offset="2498344" size="2048" />
			</blobs>
		</layer>
		<layer name="relu_conv_type" type="ReLU" precision="FP32" id="24">
			<input>
				<port id="0">
					<dim>1</dim>
					<dim>4</dim>
					<dim>5</dim>
					<dim>5</dim>
				</port>
			</input>
			<output>
				<port id="1">
					<dim>1</dim>
					<dim>4</dim>
					<dim>5</dim>
					<dim>5</dim>
				</port>
			</output>
		</layer>
		<layer name="pool_type" type="Pooling" precision="FP32" id="25">
			<data exclude-pad="false" kernel="5,5" pads_begin="0,0" pads_end="0,0" pool-method="avg" rounding_type="ceil" strides="1,1" />
			<input>
				<port id="0">
					<dim>1</dim>
					<dim>4</dim>
					<dim>5</dim>
					<dim>5</dim>
				</port>
			</input>
			<output>
				<port id="1">
					<dim>1</dim>
					<dim>4</dim>
					<dim>1</dim>
					<dim>1</dim>
				</port>
			</output>
		</layer>
		<layer name="type" type="SoftMax" precision="FP32" id="26">
			<data axis="1" />
			<input>
				<port id="0">
					<dim>1</dim>
					<dim>4</dim>
					<dim>1</dim>
					<dim>1</dim>
				</port>
			</input>
			<output>
				<port id="1">
					<dim>1</dim>
					<dim>4</dim>
					<dim>1</dim>
					<dim>1</dim>
				</port>
			</output>
		</layer>
		<layer name="conv_color" type="Convolution" precision="FP32" id="27">
			<data dilations="1,1" group="1" kernel="1,1" output="7" pads_begin="0,0" pads_end="0,0" quantization_level="FP32" strides="1,1" />
			<input>
				<port id="0">
					<dim>1</dim>
					<dim>128</dim>
					<dim>5</dim>
					<dim>5</dim>
				</port>
			</input>
			<output>
				<port id="1">
					<dim>1</dim>
					<dim>7</dim>
					<dim>5</dim>
					<dim>5</dim>
				</port>
			</output>
			<blobs>
				<biases offset="2500392" size="28" />
				<weights offset="2500420" size="3584" />
			</blobs>
		</layer>
		<layer name="relu_conv_color" type="ReLU" precision="FP32" id="28">
			<input>
				<port id="0">
					<dim>1</dim>
					<dim>7</dim>
					<dim>5</dim>
					<dim>5</dim>
				</port>
			</input>
			<output>
				<port id="1">
					<dim>1</dim>
					<dim>7</dim>
					<dim>5</dim>
					<dim>5</dim>
				</port>
			</output>
		</layer>
		<layer name="pool_color" type="Pooling" precision="FP32" id="29">
			<data exclude-pad="false" kernel="5,5" pads_begin="0,0" pads_end="0,0" pool-method="avg" rounding_type="ceil" strides="1,1" />
			<input>
				<port id="0">
					<dim>1</dim>
					<dim>7</dim>
					<dim>5</dim>
					<dim>5</dim>
				</port>
			</input>
			<output>
				<port id="1">
					<dim>1</dim>
					<dim>7</dim>
					<dim>1</dim>
					<dim>1</dim>
				</port>
			</output>
		</layer>
		<layer name="color" type="SoftMax" precision="FP32" id="30">
			<data axis="1" />
			<input>
				<port id="0">
					<dim>1</dim>
					<dim>7</dim>
					<dim>1</dim>
					<dim>1</dim>
				</port>
			</input>
			<output>
				<port id="1">
					<dim>1</dim>
					<dim>7</dim>
					<dim>1</dim>
					<dim>1</dim>
				</port>
			</output>
		</layer>
	</layers>
	<edges>
		<edge from-layer="0" from-port="0" to-layer="1" to-port="0" />
		<edge from-layer="1" from-port="1" to-layer="2" to-port="0" />
		<edge from-layer="2" from-port="1" to-layer="3" to-port="0" />
		<edge from-layer="3" from-port="1" to-layer="4" to-port="0" />
		<edge from-layer="4" from-port="1" to-layer="5" to-port="0" />
		<edge from-layer="4" from-port="1" to-layer="8" to-port="1" />
		<edge from-layer="5" from-port="1" to-layer="6" to-port="0" />
		<edge from-layer="6" from-port="1" to-layer="7" to-port="0" />
		<edge from-layer="7" from-port="1" to-layer="8" to-port="0" />
		<edge from-layer="8" from-port="2" to-layer="9" to-port="0" />
		<edge from-layer="9" from-port="1" to-layer="10" to-port="0" />
		<edge from-layer="10" from-port="1" to-layer="12" to-port="0" />
		<edge from-layer="10" from-port="1" to-layer="11" to-port="0" />
		<edge from-layer="11" from-port="1" to-layer="15" to-port="1" />
		<edge from-layer="12" from-port="1" to-layer="13" to-port="0" />
		<edge from-layer="13" from-port="1" to-layer="14" to-port="0" />
		<edge from-layer="14" from-port="1" to-layer="15" to-port="0" />
		<edge from-layer="15" from-port="2" to-layer="16" to-port="0" />
		<edge from-layer="16" from-port="1" to-layer="17" to-port="0" />
		<edge from-layer="17" from-port="1" to-layer="19" to-port="0" />
		<edge from-layer="17" from-port="1" to-layer="18" to-port="0" />
		<edge from-layer="18" from-port="1" to-layer="22" to-port="1" />
		<edge from-layer="19" from-port="1" to-layer="20" to-port="0" />
		<edge from-layer="20" from-port="1" to-layer="21" to-port="0" />
		<edge from-layer="21" from-port="1" to-layer="22" to-port="0" />
		<edge from-layer="22" from-port="2" to-layer="27" to-port="0" />
		<edge from-layer="22" from-port="2" to-layer="23" to-port="0" />
		<edge from-layer="23" from-port="1" to-layer="24" to-port="0" />
		<edge from-layer="24" from-port="1" to-layer="25" to-port="0" />
		<edge from-layer="25" from-port="1" to-layer="26" to-port="0" />
		<edge from-layer="27" from-port="1" to-layer="28" to-port="0" />
		<edge from-layer="28" from-port="1" to-layer="29" to-port="0" />
		<edge from-layer="29" from-port="1" to-layer="30" to-port="0" />
	</edges>
	<statistics>
		<layer>
			<name>Convolution1</name>
			<min>… -1.374047</min>
			<max>… 0.529017</max>
		</layer>
		<layer>
			<name>Convolution2</name>
			<min>… -1.442050</min>
			<max>… 0.785163</max>
		</layer>
		<layer>
			<name>Convolution3</name>
			<min>… -0.846214</min>
			<max>… 0.629574</max>
		</layer>
		<layer>
			<name>Convolution4</name>
			<min>… -0.910938</min>
			<max>… 0.389443</max>
		</layer>
		<layer>
			<name>Convolution5</name>
			<min>… -0.403178</min>
			<max>… 0.260430</max>
		</layer>
		<layer>
			<name>Convolution6</name>
			<min>… -0.078485</min>
			<max>… 0.096507</max>
		</layer>
		<layer>
			<name>Convolution7_</name>
			<min>… -1.520611</min>
			<max>… 2.397641</max>
		</layer>
		<layer>
			<name>Convolution8_</name>
			<min>… -4.839559</min>
			<max>… 2.705915</max>
		</layer>
		<layer>
			<name>Convolution9_</name>
			<min>… -0.213260</min>
			<max>… 0.108745</max>
		</layer>
		<layer>
			<name>Eltwise1</name>
			<min>… -0.845408</min>
			<max>… 0.969820</max>
		</layer>
		<layer>
			<name>Eltwise2</name>
			<min>… -0.407958</min>
			<max>… 0.267568</max>
		</layer>
		<layer>
			<name>Eltwise3</name>
			<min>… -4.866153</min>
			<max>… 2.637382</max>
		</layer>
		<layer>
			<name>Mul_/Fused_Mul_/FusedScaleShift_</name>
			<min>-1.486210, -1.100639, -1.039412</min>
			<max>2.017180, 1.668351, 1.906080</max>
		</layer>
		<layer>
			<name>Mul_938/Fused_Mul_/FusedScaleShift_</name>
			<min>… -0.792743</min>
			<max>… 0.372579</max>
		</layer>
		<layer>
			<name>Mul_941/Fused_Mul_/FusedScaleShift_</name>
			<min>… -0.955714</min>
			<max>… 0.849676</max>
		</layer>
		<layer>
			<name>Pooling1</name>
			<min>… -0.000000</min>
			<max>… 0.529017</max>
		</layer>
		<layer>
			<name>ReLU1</name>
			<min>… -0.000000</min>
			<max>… 0.529017</max>
		</layer>
		<layer>
			<name>ReLU2</name>
			<min>… -0.000000</min>
			<max>… 0.785163</max>
		</layer>
		<layer>
			<name>ReLU3</name>
			<min>… -0.000000</min>
			<max>… 0.849676</max>
		</layer>
		<layer>
			<name>ReLU4</name>
			<min>… -0.000000</min>
			<max>… 0.389443</max>
		</layer>
		<layer>
			<name>ReLU5</name>
			<min>… -0.000000</min>
			<max>… 0.372579</max>
		</layer>
		<layer>
			<name>ReLU6_</name>
			<min>… -0.000000</min>
			<max>… 2.397641</max>
		</layer>
		<layer>
			<name>color</name>
			<min>0.000000, 0.000000, 0.000000, 0.000000, 0.000000, 0.000000, 0.000000</min>
			<max>1.000000, 0.988427, 0.002327, 0.999999, 0.066999, 0.999951, 1.000000</max>
		</layer>
		<layer>
			<name>conv_color</name>
			<min>-13.506009, -10.808620, -14.647364, -2.789529, -12.041644, -14.881329, -11.464386</min>
			<max>40.903057, 28.954319, 15.449120, 37.083988, 14.119350, 32.167919, 52.195187</max>
		</layer>
		<layer>
			<name>conv_type</name>
			<min>-6.242589, -15.857176, -14.670082, -11.543294</min>
			<max>57.850468, 18.851368, 27.143709, 23.807281</max>
		</layer>
		<layer>
			<name>input</name>
			<min>0.000000, 0.000000, 0.000000</min>
			<max>255.000000, 255.000000, 255.000000</max>
		</layer>
		<layer>
			<name>pool_color</name>
			<min>0.065525, 0.026355, 0.000000, 0.067317, 0.000000, 0.000000, 0.000000</min>
			<max>20.750341, 14.051600, 6.296879, 18.551592, 5.807144, 14.179525, 22.446182</max>
		</layer>
		<layer>
			<name>pool_type</name>
			<min>0.611729, 0.000000, 0.111630, 0.136686</min>
			<max>26.981985, 7.690254, 14.782531, 11.727703</max>
		</layer>
		<layer>
			<name>relu_conv_color</name>
			<min>-0.000000, -0.000000, -0.000000, -0.000000, -0.000000, -0.000000, -0.000000</min>
			<max>40.903057, 28.954319, 15.449120, 37.083988, 14.119350, 32.167919, 52.195187</max>
		</layer>
		<layer>
			<name>relu_conv_type</name>
			<min>-0.000000, -0.000000, -0.000000, -0.000000</min>
			<max>57.850468, 18.851368, 27.143709, 23.807281</max>
		</layer>
		<layer>
			<name>type</name>
			<min>0.000000, 0.000000, 0.000000, 0.000000</min>
			<max>1.000000, 0.236938, 0.999966, 0.999141</max>
		</layer>
	</statistics>
</net>
