<?xml version="1.0" ?>
<net batch="1" name="semantic-segmentation-adas-0001" version="6">
	<layers>
		<layer id="0" name="data" precision="FP32" type="Input">
			<output>
				<port id="0">
					<dim>1</dim>
					<dim>3</dim>
					<dim>1024</dim>
					<dim>2048</dim>
				</port>
			</output>
		</layer>
		<layer id="1" name="Mul_/Fused_Mul_/FusedScaleShift_" precision="FP32" type="ScaleShift">
			<input>
				<port id="0">
					<dim>1</dim>
					<dim>3</dim>
					<dim>1024</dim>
					<dim>2048</dim>
				</port>
			</input>
			<output>
				<port id="3">
					<dim>1</dim>
					<dim>3</dim>
					<dim>1024</dim>
					<dim>2048</dim>
				</port>
			</output>
			<blobs>
				<weights offset="0" size="12"/>
				<biases offset="12" size="12"/>
			</blobs>
		</layer>
		<layer id="2" name="AvgPool2DBackward2" precision="FP32" type="Pooling">
			<data exclude-pad="false" kernel="2,2" pads_begin="0,0" pads_end="0,0" pool-method="avg" rounding_type="ceil" strides="2,2"/>
			<input>
				<port id="0">
					<dim>1</dim>
					<dim>3</dim>
					<dim>1024</dim>
					<dim>2048</dim>
				</port>
			</input>
			<output>
				<port id="1">
					<dim>1</dim>
					<dim>3</dim>
					<dim>512</dim>
					<dim>1024</dim>
				</port>
			</output>
		</layer>
		<layer id="3" name="ConvNdBackward3" precision="FP32" type="Convolution">
			<data dilations="1,1" group="1" kernel="3,3" output="32" pads_begin="1,1" pads_end="1,1" strides="2,2"/>
			<input>
				<port id="0">
					<dim>1</dim>
					<dim>3</dim>
					<dim>512</dim>
					<dim>1024</dim>
				</port>
			</input>
			<output>
				<port id="3">
					<dim>1</dim>
					<dim>32</dim>
					<dim>256</dim>
					<dim>512</dim>
				</port>
			</output>
			<blobs>
				<weights offset="24" size="3456"/>
				<biases offset="3480" size="128"/>
			</blobs>
		</layer>
		<layer id="4" name="ThresholdBackward5" precision="FP32" type="ReLU">
			<input>
				<port id="0">
					<dim>1</dim>
					<dim>32</dim>
					<dim>256</dim>
					<dim>512</dim>
				</port>
			</input>
			<output>
				<port id="1">
					<dim>1</dim>
					<dim>32</dim>
					<dim>256</dim>
					<dim>512</dim>
				</port>
			</output>
		</layer>
		<layer id="5" name="ConvNdBackward6" precision="FP32" type="Convolution">
			<data dilations="1,1" group="1" kernel="3,3" output="32" pads_begin="1,1" pads_end="1,1" strides="1,1"/>
			<input>
				<port id="0">
					<dim>1</dim>
					<dim>32</dim>
					<dim>256</dim>
					<dim>512</dim>
				</port>
			</input>
			<output>
				<port id="3">
					<dim>1</dim>
					<dim>32</dim>
					<dim>256</dim>
					<dim>512</dim>
				</port>
			</output>
			<blobs>
				<weights offset="3608" size="36864"/>
				<biases offset="40472" size="128"/>
			</blobs>
		</layer>
		<layer id="6" name="ThresholdBackward8" precision="FP32" type="ReLU">
			<input>
				<port id="0">
					<dim>1</dim>
					<dim>32</dim>
					<dim>256</dim>
					<dim>512</dim>
				</port>
			</input>
			<output>
				<port id="1">
					<dim>1</dim>
					<dim>32</dim>
					<dim>256</dim>
					<dim>512</dim>
				</port>
			</output>
		</layer>
		<layer id="7" name="ConvNdBackward9" precision="FP32" type="Convolution">
			<data dilations="1,1" group="1" kernel="3,3" output="64" pads_begin="1,1" pads_end="1,1" strides="1,1"/>
			<input>
				<port id="0">
					<dim>1</dim>
					<dim>32</dim>
					<dim>256</dim>
					<dim>512</dim>
				</port>
			</input>
			<output>
				<port id="3">
					<dim>1</dim>
					<dim>64</dim>
					<dim>256</dim>
					<dim>512</dim>
				</port>
			</output>
			<blobs>
				<weights offset="40600" size="73728"/>
				<biases offset="114328" size="256"/>
			</blobs>
		</layer>
		<layer id="8" name="ThresholdBackward11" precision="FP32" type="ReLU">
			<input>
				<port id="0">
					<dim>1</dim>
					<dim>64</dim>
					<dim>256</dim>
					<dim>512</dim>
				</port>
			</input>
			<output>
				<port id="1">
					<dim>1</dim>
					<dim>64</dim>
					<dim>256</dim>
					<dim>512</dim>
				</port>
			</output>
		</layer>
		<layer id="9" name="MaxPool2DBackward12" precision="FP32" type="Pooling">
			<data exclude-pad="true" kernel="3,3" pads_begin="0,0" pads_end="0,0" pool-method="max" rounding_type="ceil" strides="2,2"/>
			<input>
				<port id="0">
					<dim>1</dim>
					<dim>64</dim>
					<dim>256</dim>
					<dim>512</dim>
				</port>
			</input>
			<output>
				<port id="1">
					<dim>1</dim>
					<dim>64</dim>
					<dim>128</dim>
					<dim>256</dim>
				</port>
			</output>
		</layer>
		<layer id="10" name="ConvNdBackward13" precision="FP32" type="Convolution">
			<data dilations="1,1" group="1" kernel="1,1" output="32" pads_begin="0,0" pads_end="0,0" strides="1,1"/>
			<input>
				<port id="0">
					<dim>1</dim>
					<dim>64</dim>
					<dim>128</dim>
					<dim>256</dim>
				</port>
			</input>
			<output>
				<port id="3">
					<dim>1</dim>
					<dim>32</dim>
					<dim>128</dim>
					<dim>256</dim>
				</port>
			</output>
			<blobs>
				<weights offset="114584" size="8192"/>
				<biases offset="122776" size="128"/>
			</blobs>
		</layer>
		<layer id="11" name="ThresholdBackward15" precision="FP32" type="ReLU">
			<input>
				<port id="0">
					<dim>1</dim>
					<dim>32</dim>
					<dim>128</dim>
					<dim>256</dim>
				</port>
			</input>
			<output>
				<port id="1">
					<dim>1</dim>
					<dim>32</dim>
					<dim>128</dim>
					<dim>256</dim>
				</port>
			</output>
		</layer>
		<layer id="12" name="ConvNdBackward16" precision="FP32" type="Convolution">
			<data dilations="1,1" group="1" kernel="3,3" output="32" pads_begin="1,1" pads_end="1,1" strides="1,1"/>
			<input>
				<port id="0">
					<dim>1</dim>
					<dim>32</dim>
					<dim>128</dim>
					<dim>256</dim>
				</port>
			</input>
			<output>
				<port id="3">
					<dim>1</dim>
					<dim>32</dim>
					<dim>128</dim>
					<dim>256</dim>
				</port>
			</output>
			<blobs>
				<weights offset="122904" size="36864"/>
				<biases offset="159768" size="128"/>
			</blobs>
		</layer>
		<layer id="13" name="ThresholdBackward18" precision="FP32" type="ReLU">
			<input>
				<port id="0">
					<dim>1</dim>
					<dim>32</dim>
					<dim>128</dim>
					<dim>256</dim>
				</port>
			</input>
			<output>
				<port id="1">
					<dim>1</dim>
					<dim>32</dim>
					<dim>128</dim>
					<dim>256</dim>
				</port>
			</output>
		</layer>
		<layer id="14" name="ConvNdBackward19" precision="FP32" type="Convolution">
			<data dilations="1,1" group="1" kernel="1,1" output="128" pads_begin="0,0" pads_end="0,0" strides="1,1"/>
			<input>
				<port id="0">
					<dim>1</dim>
					<dim>32</dim>
					<dim>128</dim>
					<dim>256</dim>
				</port>
			</input>
			<output>
				<port id="3">
					<dim>1</dim>
					<dim>128</dim>
					<dim>128</dim>
					<dim>256</dim>
				</port>
			</output>
			<blobs>
				<weights offset="159896" size="16384"/>
				<biases offset="176280" size="512"/>
			</blobs>
		</layer>
		<layer id="15" name="ConvNdBackward22" precision="FP32" type="Convolution">
			<data dilations="1,1" group="1" kernel="1,1" output="128" pads_begin="0,0" pads_end="0,0" strides="1,1"/>
			<input>
				<port id="0">
					<dim>1</dim>
					<dim>64</dim>
					<dim>128</dim>
					<dim>256</dim>
				</port>
			</input>
			<output>
				<port id="3">
					<dim>1</dim>
					<dim>128</dim>
					<dim>128</dim>
					<dim>256</dim>
				</port>
			</output>
			<blobs>
				<weights offset="176792" size="32768"/>
				<biases offset="209560" size="512"/>
			</blobs>
		</layer>
		<layer id="16" name="AddBackward124" precision="FP32" type="Eltwise">
			<data operation="sum"/>
			<input>
				<port id="0">
					<dim>1</dim>
					<dim>128</dim>
					<dim>128</dim>
					<dim>256</dim>
				</port>
				<port id="1">
					<dim>1</dim>
					<dim>128</dim>
					<dim>128</dim>
					<dim>256</dim>
				</port>
			</input>
			<output>
				<port id="2">
					<dim>1</dim>
					<dim>128</dim>
					<dim>128</dim>
					<dim>256</dim>
				</port>
			</output>
		</layer>
		<layer id="17" name="ThresholdBackward25" precision="FP32" type="ReLU">
			<input>
				<port id="0">
					<dim>1</dim>
					<dim>128</dim>
					<dim>128</dim>
					<dim>256</dim>
				</port>
			</input>
			<output>
				<port id="1">
					<dim>1</dim>
					<dim>128</dim>
					<dim>128</dim>
					<dim>256</dim>
				</port>
			</output>
		</layer>
		<layer id="18" name="ConvNdBackward26" precision="FP32" type="Convolution">
			<data dilations="1,1" group="1" kernel="1,1" output="32" pads_begin="0,0" pads_end="0,0" strides="1,1"/>
			<input>
				<port id="0">
					<dim>1</dim>
					<dim>128</dim>
					<dim>128</dim>
					<dim>256</dim>
				</port>
			</input>
			<output>
				<port id="3">
					<dim>1</dim>
					<dim>32</dim>
					<dim>128</dim>
					<dim>256</dim>
				</port>
			</output>
			<blobs>
				<weights offset="210072" size="16384"/>
				<biases offset="226456" size="128"/>
			</blobs>
		</layer>
		<layer id="19" name="ThresholdBackward28" precision="FP32" type="ReLU">
			<input>
				<port id="0">
					<dim>1</dim>
					<dim>32</dim>
					<dim>128</dim>
					<dim>256</dim>
				</port>
			</input>
			<output>
				<port id="1">
					<dim>1</dim>
					<dim>32</dim>
					<dim>128</dim>
					<dim>256</dim>
				</port>
			</output>
		</layer>
		<layer id="20" name="ConvNdBackward29" precision="FP32" type="Convolution">
			<data dilations="1,1" group="1" kernel="3,3" output="32" pads_begin="1,1" pads_end="1,1" strides="1,1"/>
			<input>
				<port id="0">
					<dim>1</dim>
					<dim>32</dim>
					<dim>128</dim>
					<dim>256</dim>
				</port>
			</input>
			<output>
				<port id="3">
					<dim>1</dim>
					<dim>32</dim>
					<dim>128</dim>
					<dim>256</dim>
				</port>
			</output>
			<blobs>
				<weights offset="226584" size="36864"/>
				<biases offset="263448" size="128"/>
			</blobs>
		</layer>
		<layer id="21" name="ThresholdBackward31" precision="FP32" type="ReLU">
			<input>
				<port id="0">
					<dim>1</dim>
					<dim>32</dim>
					<dim>128</dim>
					<dim>256</dim>
				</port>
			</input>
			<output>
				<port id="1">
					<dim>1</dim>
					<dim>32</dim>
					<dim>128</dim>
					<dim>256</dim>
				</port>
			</output>
		</layer>
		<layer id="22" name="ConvNdBackward32" precision="FP32" type="Convolution">
			<data dilations="1,1" group="1" kernel="1,1" output="128" pads_begin="0,0" pads_end="0,0" strides="1,1"/>
			<input>
				<port id="0">
					<dim>1</dim>
					<dim>32</dim>
					<dim>128</dim>
					<dim>256</dim>
				</port>
			</input>
			<output>
				<port id="3">
					<dim>1</dim>
					<dim>128</dim>
					<dim>128</dim>
					<dim>256</dim>
				</port>
			</output>
			<blobs>
				<weights offset="263576" size="16384"/>
				<biases offset="279960" size="512"/>
			</blobs>
		</layer>
		<layer id="23" name="AddBackward135" precision="FP32" type="Eltwise">
			<data operation="sum"/>
			<input>
				<port id="0">
					<dim>1</dim>
					<dim>128</dim>
					<dim>128</dim>
					<dim>256</dim>
				</port>
				<port id="1">
					<dim>1</dim>
					<dim>128</dim>
					<dim>128</dim>
					<dim>256</dim>
				</port>
			</input>
			<output>
				<port id="2">
					<dim>1</dim>
					<dim>128</dim>
					<dim>128</dim>
					<dim>256</dim>
				</port>
			</output>
		</layer>
		<layer id="24" name="ThresholdBackward36" precision="FP32" type="ReLU">
			<input>
				<port id="0">
					<dim>1</dim>
					<dim>128</dim>
					<dim>128</dim>
					<dim>256</dim>
				</port>
			</input>
			<output>
				<port id="1">
					<dim>1</dim>
					<dim>128</dim>
					<dim>128</dim>
					<dim>256</dim>
				</port>
			</output>
		</layer>
		<layer id="25" name="ConvNdBackward37" precision="FP32" type="Convolution">
			<data dilations="1,1" group="1" kernel="1,1" output="32" pads_begin="0,0" pads_end="0,0" strides="1,1"/>
			<input>
				<port id="0">
					<dim>1</dim>
					<dim>128</dim>
					<dim>128</dim>
					<dim>256</dim>
				</port>
			</input>
			<output>
				<port id="3">
					<dim>1</dim>
					<dim>32</dim>
					<dim>128</dim>
					<dim>256</dim>
				</port>
			</output>
			<blobs>
				<weights offset="280472" size="16384"/>
				<biases offset="296856" size="128"/>
			</blobs>
		</layer>
		<layer id="26" name="ThresholdBackward39" precision="FP32" type="ReLU">
			<input>
				<port id="0">
					<dim>1</dim>
					<dim>32</dim>
					<dim>128</dim>
					<dim>256</dim>
				</port>
			</input>
			<output>
				<port id="1">
					<dim>1</dim>
					<dim>32</dim>
					<dim>128</dim>
					<dim>256</dim>
				</port>
			</output>
		</layer>
		<layer id="27" name="ConvNdBackward40" precision="FP32" type="Convolution">
			<data dilations="1,1" group="1" kernel="3,3" output="32" pads_begin="1,1" pads_end="1,1" strides="2,2"/>
			<input>
				<port id="0">
					<dim>1</dim>
					<dim>32</dim>
					<dim>128</dim>
					<dim>256</dim>
				</port>
			</input>
			<output>
				<port id="3">
					<dim>1</dim>
					<dim>32</dim>
					<dim>64</dim>
					<dim>128</dim>
				</port>
			</output>
			<blobs>
				<weights offset="296984" size="36864"/>
				<biases offset="333848" size="128"/>
			</blobs>
		</layer>
		<layer id="28" name="ThresholdBackward42" precision="FP32" type="ReLU">
			<input>
				<port id="0">
					<dim>1</dim>
					<dim>32</dim>
					<dim>64</dim>
					<dim>128</dim>
				</port>
			</input>
			<output>
				<port id="1">
					<dim>1</dim>
					<dim>32</dim>
					<dim>64</dim>
					<dim>128</dim>
				</port>
			</output>
		</layer>
		<layer id="29" name="ConvNdBackward43" precision="FP32" type="Convolution">
			<data dilations="1,1" group="1" kernel="1,1" output="128" pads_begin="0,0" pads_end="0,0" strides="1,1"/>
			<input>
				<port id="0">
					<dim>1</dim>
					<dim>32</dim>
					<dim>64</dim>
					<dim>128</dim>
				</port>
			</input>
			<output>
				<port id="3">
					<dim>1</dim>
					<dim>128</dim>
					<dim>64</dim>
					<dim>128</dim>
				</port>
			</output>
			<blobs>
				<weights offset="333976" size="16384"/>
				<biases offset="350360" size="512"/>
			</blobs>
		</layer>
		<layer id="30" name="Pooling_" precision="FP32" type="Pooling">
			<data kernel="1,1" pads_begin="0,0" pads_end="0,0" pool-method="max" strides="2,2"/>
			<input>
				<port id="0">
					<dim>1</dim>
					<dim>128</dim>
					<dim>128</dim>
					<dim>256</dim>
				</port>
			</input>
			<output>
				<port id="1">
					<dim>1</dim>
					<dim>128</dim>
					<dim>64</dim>
					<dim>128</dim>
				</port>
			</output>
		</layer>
		<layer id="31" name="AddBackward146" precision="FP32" type="Eltwise">
			<data operation="sum"/>
			<input>
				<port id="0">
					<dim>1</dim>
					<dim>128</dim>
					<dim>64</dim>
					<dim>128</dim>
				</port>
				<port id="1">
					<dim>1</dim>
					<dim>128</dim>
					<dim>64</dim>
					<dim>128</dim>
				</port>
			</input>
			<output>
				<port id="2">
					<dim>1</dim>
					<dim>128</dim>
					<dim>64</dim>
					<dim>128</dim>
				</port>
			</output>
		</layer>
		<layer id="32" name="ThresholdBackward47" precision="FP32" type="ReLU">
			<input>
				<port id="0">
					<dim>1</dim>
					<dim>128</dim>
					<dim>64</dim>
					<dim>128</dim>
				</port>
			</input>
			<output>
				<port id="1">
					<dim>1</dim>
					<dim>128</dim>
					<dim>64</dim>
					<dim>128</dim>
				</port>
			</output>
		</layer>
		<layer id="33" name="ConvNdBackward48" precision="FP32" type="Convolution">
			<data dilations="1,1" group="1" kernel="1,1" output="64" pads_begin="0,0" pads_end="0,0" strides="1,1"/>
			<input>
				<port id="0">
					<dim>1</dim>
					<dim>128</dim>
					<dim>64</dim>
					<dim>128</dim>
				</port>
			</input>
			<output>
				<port id="3">
					<dim>1</dim>
					<dim>64</dim>
					<dim>64</dim>
					<dim>128</dim>
				</port>
			</output>
			<blobs>
				<weights offset="350872" size="32768"/>
				<biases offset="383640" size="256"/>
			</blobs>
		</layer>
		<layer id="34" name="ThresholdBackward50" precision="FP32" type="ReLU">
			<input>
				<port id="0">
					<dim>1</dim>
					<dim>64</dim>
					<dim>64</dim>
					<dim>128</dim>
				</port>
			</input>
			<output>
				<port id="1">
					<dim>1</dim>
					<dim>64</dim>
					<dim>64</dim>
					<dim>128</dim>
				</port>
			</output>
		</layer>
		<layer id="35" name="ConvNdBackward51" precision="FP32" type="Convolution">
			<data dilations="1,1" group="1" kernel="3,3" output="64" pads_begin="1,1" pads_end="1,1" strides="1,1"/>
			<input>
				<port id="0">
					<dim>1</dim>
					<dim>64</dim>
					<dim>64</dim>
					<dim>128</dim>
				</port>
			</input>
			<output>
				<port id="3">
					<dim>1</dim>
					<dim>64</dim>
					<dim>64</dim>
					<dim>128</dim>
				</port>
			</output>
			<blobs>
				<weights offset="383896" size="147456"/>
				<biases offset="531352" size="256"/>
			</blobs>
		</layer>
		<layer id="36" name="ThresholdBackward53" precision="FP32" type="ReLU">
			<input>
				<port id="0">
					<dim>1</dim>
					<dim>64</dim>
					<dim>64</dim>
					<dim>128</dim>
				</port>
			</input>
			<output>
				<port id="1">
					<dim>1</dim>
					<dim>64</dim>
					<dim>64</dim>
					<dim>128</dim>
				</port>
			</output>
		</layer>
		<layer id="37" name="ConvNdBackward54" precision="FP32" type="Convolution">
			<data dilations="1,1" group="1" kernel="1,1" output="256" pads_begin="0,0" pads_end="0,0" strides="1,1"/>
			<input>
				<port id="0">
					<dim>1</dim>
					<dim>64</dim>
					<dim>64</dim>
					<dim>128</dim>
				</port>
			</input>
			<output>
				<port id="3">
					<dim>1</dim>
					<dim>256</dim>
					<dim>64</dim>
					<dim>128</dim>
				</port>
			</output>
			<blobs>
				<weights offset="531608" size="65536"/>
				<biases offset="597144" size="1024"/>
			</blobs>
		</layer>
		<layer id="38" name="ConvNdBackward57" precision="FP32" type="Convolution">
			<data dilations="1,1" group="1" kernel="1,1" output="256" pads_begin="0,0" pads_end="0,0" strides="1,1"/>
			<input>
				<port id="0">
					<dim>1</dim>
					<dim>128</dim>
					<dim>64</dim>
					<dim>128</dim>
				</port>
			</input>
			<output>
				<port id="3">
					<dim>1</dim>
					<dim>256</dim>
					<dim>64</dim>
					<dim>128</dim>
				</port>
			</output>
			<blobs>
				<weights offset="598168" size="131072"/>
				<biases offset="729240" size="1024"/>
			</blobs>
		</layer>
		<layer id="39" name="AddBackward159" precision="FP32" type="Eltwise">
			<data operation="sum"/>
			<input>
				<port id="0">
					<dim>1</dim>
					<dim>256</dim>
					<dim>64</dim>
					<dim>128</dim>
				</port>
				<port id="1">
					<dim>1</dim>
					<dim>256</dim>
					<dim>64</dim>
					<dim>128</dim>
				</port>
			</input>
			<output>
				<port id="2">
					<dim>1</dim>
					<dim>256</dim>
					<dim>64</dim>
					<dim>128</dim>
				</port>
			</output>
		</layer>
		<layer id="40" name="ThresholdBackward60" precision="FP32" type="ReLU">
			<input>
				<port id="0">
					<dim>1</dim>
					<dim>256</dim>
					<dim>64</dim>
					<dim>128</dim>
				</port>
			</input>
			<output>
				<port id="1">
					<dim>1</dim>
					<dim>256</dim>
					<dim>64</dim>
					<dim>128</dim>
				</port>
			</output>
		</layer>
		<layer id="41" name="AvgPool2DBackward61" precision="FP32" type="Pooling">
			<data exclude-pad="false" kernel="2,2" pads_begin="0,0" pads_end="0,0" pool-method="avg" rounding_type="ceil" strides="2,2"/>
			<input>
				<port id="0">
					<dim>1</dim>
					<dim>256</dim>
					<dim>64</dim>
					<dim>128</dim>
				</port>
			</input>
			<output>
				<port id="1">
					<dim>1</dim>
					<dim>256</dim>
					<dim>32</dim>
					<dim>64</dim>
				</port>
			</output>
		</layer>
		<layer id="42" name="ConvNdBackward62" precision="FP32" type="Convolution">
			<data dilations="1,1" group="1" kernel="1,1" output="64" pads_begin="0,0" pads_end="0,0" strides="1,1"/>
			<input>
				<port id="0">
					<dim>1</dim>
					<dim>256</dim>
					<dim>32</dim>
					<dim>64</dim>
				</port>
			</input>
			<output>
				<port id="3">
					<dim>1</dim>
					<dim>64</dim>
					<dim>32</dim>
					<dim>64</dim>
				</port>
			</output>
			<blobs>
				<weights offset="730264" size="65536"/>
				<biases offset="795800" size="256"/>
			</blobs>
		</layer>
		<layer id="43" name="ThresholdBackward64" precision="FP32" type="ReLU">
			<input>
				<port id="0">
					<dim>1</dim>
					<dim>64</dim>
					<dim>32</dim>
					<dim>64</dim>
				</port>
			</input>
			<output>
				<port id="1">
					<dim>1</dim>
					<dim>64</dim>
					<dim>32</dim>
					<dim>64</dim>
				</port>
			</output>
		</layer>
		<layer id="44" name="ConvNdBackward65" precision="FP32" type="Convolution">
			<data dilations="1,1" group="1" kernel="3,3" output="64" pads_begin="1,1" pads_end="1,1" strides="1,1"/>
			<input>
				<port id="0">
					<dim>1</dim>
					<dim>64</dim>
					<dim>32</dim>
					<dim>64</dim>
				</port>
			</input>
			<output>
				<port id="3">
					<dim>1</dim>
					<dim>64</dim>
					<dim>32</dim>
					<dim>64</dim>
				</port>
			</output>
			<blobs>
				<weights offset="796056" size="147456"/>
				<biases offset="943512" size="256"/>
			</blobs>
		</layer>
		<layer id="45" name="ThresholdBackward67" precision="FP32" type="ReLU">
			<input>
				<port id="0">
					<dim>1</dim>
					<dim>64</dim>
					<dim>32</dim>
					<dim>64</dim>
				</port>
			</input>
			<output>
				<port id="1">
					<dim>1</dim>
					<dim>64</dim>
					<dim>32</dim>
					<dim>64</dim>
				</port>
			</output>
		</layer>
		<layer id="46" name="ConvNdBackward68" precision="FP32" type="Convolution">
			<data dilations="1,1" group="1" kernel="1,1" output="256" pads_begin="0,0" pads_end="0,0" strides="1,1"/>
			<input>
				<port id="0">
					<dim>1</dim>
					<dim>64</dim>
					<dim>32</dim>
					<dim>64</dim>
				</port>
			</input>
			<output>
				<port id="3">
					<dim>1</dim>
					<dim>256</dim>
					<dim>32</dim>
					<dim>64</dim>
				</port>
			</output>
			<blobs>
				<weights offset="943768" size="65536"/>
				<biases offset="1009304" size="1024"/>
			</blobs>
		</layer>
		<layer id="47" name="AddBackward171" precision="FP32" type="Eltwise">
			<data operation="sum"/>
			<input>
				<port id="0">
					<dim>1</dim>
					<dim>256</dim>
					<dim>32</dim>
					<dim>64</dim>
				</port>
				<port id="1">
					<dim>1</dim>
					<dim>256</dim>
					<dim>32</dim>
					<dim>64</dim>
				</port>
			</input>
			<output>
				<port id="2">
					<dim>1</dim>
					<dim>256</dim>
					<dim>32</dim>
					<dim>64</dim>
				</port>
			</output>
		</layer>
		<layer id="48" name="ThresholdBackward72" precision="FP32" type="ReLU">
			<input>
				<port id="0">
					<dim>1</dim>
					<dim>256</dim>
					<dim>32</dim>
					<dim>64</dim>
				</port>
			</input>
			<output>
				<port id="1">
					<dim>1</dim>
					<dim>256</dim>
					<dim>32</dim>
					<dim>64</dim>
				</port>
			</output>
		</layer>
		<layer id="49" name="ConvNdBackward73" precision="FP32" type="Convolution">
			<data dilations="1,1" group="1" kernel="1,1" output="64" pads_begin="0,0" pads_end="0,0" strides="1,1"/>
			<input>
				<port id="0">
					<dim>1</dim>
					<dim>256</dim>
					<dim>32</dim>
					<dim>64</dim>
				</port>
			</input>
			<output>
				<port id="3">
					<dim>1</dim>
					<dim>64</dim>
					<dim>32</dim>
					<dim>64</dim>
				</port>
			</output>
			<blobs>
				<weights offset="1010328" size="65536"/>
				<biases offset="1075864" size="256"/>
			</blobs>
		</layer>
		<layer id="50" name="ThresholdBackward75" precision="FP32" type="ReLU">
			<input>
				<port id="0">
					<dim>1</dim>
					<dim>64</dim>
					<dim>32</dim>
					<dim>64</dim>
				</port>
			</input>
			<output>
				<port id="1">
					<dim>1</dim>
					<dim>64</dim>
					<dim>32</dim>
					<dim>64</dim>
				</port>
			</output>
		</layer>
		<layer id="51" name="ConvNdBackward76" precision="FP32" type="Convolution">
			<data dilations="1,1" group="1" kernel="3,3" output="64" pads_begin="1,1" pads_end="1,1" strides="1,1"/>
			<input>
				<port id="0">
					<dim>1</dim>
					<dim>64</dim>
					<dim>32</dim>
					<dim>64</dim>
				</port>
			</input>
			<output>
				<port id="3">
					<dim>1</dim>
					<dim>64</dim>
					<dim>32</dim>
					<dim>64</dim>
				</port>
			</output>
			<blobs>
				<weights offset="1076120" size="147456"/>
				<biases offset="1223576" size="256"/>
			</blobs>
		</layer>
		<layer id="52" name="ThresholdBackward78" precision="FP32" type="ReLU">
			<input>
				<port id="0">
					<dim>1</dim>
					<dim>64</dim>
					<dim>32</dim>
					<dim>64</dim>
				</port>
			</input>
			<output>
				<port id="1">
					<dim>1</dim>
					<dim>64</dim>
					<dim>32</dim>
					<dim>64</dim>
				</port>
			</output>
		</layer>
		<layer id="53" name="ConvNdBackward79" precision="FP32" type="Convolution">
			<data dilations="1,1" group="1" kernel="1,1" output="256" pads_begin="0,0" pads_end="0,0" strides="1,1"/>
			<input>
				<port id="0">
					<dim>1</dim>
					<dim>64</dim>
					<dim>32</dim>
					<dim>64</dim>
				</port>
			</input>
			<output>
				<port id="3">
					<dim>1</dim>
					<dim>256</dim>
					<dim>32</dim>
					<dim>64</dim>
				</port>
			</output>
			<blobs>
				<weights offset="1223832" size="65536"/>
				<biases offset="1289368" size="1024"/>
			</blobs>
		</layer>
		<layer id="54" name="AddBackward182" precision="FP32" type="Eltwise">
			<data operation="sum"/>
			<input>
				<port id="0">
					<dim>1</dim>
					<dim>256</dim>
					<dim>32</dim>
					<dim>64</dim>
				</port>
				<port id="1">
					<dim>1</dim>
					<dim>256</dim>
					<dim>32</dim>
					<dim>64</dim>
				</port>
			</input>
			<output>
				<port id="2">
					<dim>1</dim>
					<dim>256</dim>
					<dim>32</dim>
					<dim>64</dim>
				</port>
			</output>
		</layer>
		<layer id="55" name="ThresholdBackward83" precision="FP32" type="ReLU">
			<input>
				<port id="0">
					<dim>1</dim>
					<dim>256</dim>
					<dim>32</dim>
					<dim>64</dim>
				</port>
			</input>
			<output>
				<port id="1">
					<dim>1</dim>
					<dim>256</dim>
					<dim>32</dim>
					<dim>64</dim>
				</port>
			</output>
		</layer>
		<layer id="56" name="ConvNdBackward84" precision="FP32" type="Convolution">
			<data dilations="1,1" group="1" kernel="1,1" output="64" pads_begin="0,0" pads_end="0,0" strides="1,1"/>
			<input>
				<port id="0">
					<dim>1</dim>
					<dim>256</dim>
					<dim>32</dim>
					<dim>64</dim>
				</port>
			</input>
			<output>
				<port id="3">
					<dim>1</dim>
					<dim>64</dim>
					<dim>32</dim>
					<dim>64</dim>
				</port>
			</output>
			<blobs>
				<weights offset="1290392" size="65536"/>
				<biases offset="1355928" size="256"/>
			</blobs>
		</layer>
		<layer id="57" name="ThresholdBackward86" precision="FP32" type="ReLU">
			<input>
				<port id="0">
					<dim>1</dim>
					<dim>64</dim>
					<dim>32</dim>
					<dim>64</dim>
				</port>
			</input>
			<output>
				<port id="1">
					<dim>1</dim>
					<dim>64</dim>
					<dim>32</dim>
					<dim>64</dim>
				</port>
			</output>
		</layer>
		<layer id="58" name="ConvNdBackward87" precision="FP32" type="Convolution">
			<data dilations="1,1" group="1" kernel="3,3" output="64" pads_begin="1,1" pads_end="1,1" strides="1,1"/>
			<input>
				<port id="0">
					<dim>1</dim>
					<dim>64</dim>
					<dim>32</dim>
					<dim>64</dim>
				</port>
			</input>
			<output>
				<port id="3">
					<dim>1</dim>
					<dim>64</dim>
					<dim>32</dim>
					<dim>64</dim>
				</port>
			</output>
			<blobs>
				<weights offset="1356184" size="147456"/>
				<biases offset="1503640" size="256"/>
			</blobs>
		</layer>
		<layer id="59" name="ThresholdBackward89" precision="FP32" type="ReLU">
			<input>
				<port id="0">
					<dim>1</dim>
					<dim>64</dim>
					<dim>32</dim>
					<dim>64</dim>
				</port>
			</input>
			<output>
				<port id="1">
					<dim>1</dim>
					<dim>64</dim>
					<dim>32</dim>
					<dim>64</dim>
				</port>
			</output>
		</layer>
		<layer id="60" name="ConvNdBackward90" precision="FP32" type="Convolution">
			<data dilations="1,1" group="1" kernel="1,1" output="256" pads_begin="0,0" pads_end="0,0" strides="1,1"/>
			<input>
				<port id="0">
					<dim>1</dim>
					<dim>64</dim>
					<dim>32</dim>
					<dim>64</dim>
				</port>
			</input>
			<output>
				<port id="3">
					<dim>1</dim>
					<dim>256</dim>
					<dim>32</dim>
					<dim>64</dim>
				</port>
			</output>
			<blobs>
				<weights offset="1503896" size="65536"/>
				<biases offset="1569432" size="1024"/>
			</blobs>
		</layer>
		<layer id="61" name="AddBackward193" precision="FP32" type="Eltwise">
			<data operation="sum"/>
			<input>
				<port id="0">
					<dim>1</dim>
					<dim>256</dim>
					<dim>32</dim>
					<dim>64</dim>
				</port>
				<port id="1">
					<dim>1</dim>
					<dim>256</dim>
					<dim>32</dim>
					<dim>64</dim>
				</port>
			</input>
			<output>
				<port id="2">
					<dim>1</dim>
					<dim>256</dim>
					<dim>32</dim>
					<dim>64</dim>
				</port>
			</output>
		</layer>
		<layer id="62" name="ThresholdBackward94" precision="FP32" type="ReLU">
			<input>
				<port id="0">
					<dim>1</dim>
					<dim>256</dim>
					<dim>32</dim>
					<dim>64</dim>
				</port>
			</input>
			<output>
				<port id="1">
					<dim>1</dim>
					<dim>256</dim>
					<dim>32</dim>
					<dim>64</dim>
				</port>
			</output>
		</layer>
		<layer id="63" name="ConvNdBackward95" precision="FP32" type="Convolution">
			<data dilations="1,1" group="1" kernel="1,1" output="128" pads_begin="0,0" pads_end="0,0" strides="1,1"/>
			<input>
				<port id="0">
					<dim>1</dim>
					<dim>256</dim>
					<dim>32</dim>
					<dim>64</dim>
				</port>
			</input>
			<output>
				<port id="3">
					<dim>1</dim>
					<dim>128</dim>
					<dim>32</dim>
					<dim>64</dim>
				</port>
			</output>
			<blobs>
				<weights offset="1570456" size="131072"/>
				<biases offset="1701528" size="512"/>
			</blobs>
		</layer>
		<layer id="64" name="ThresholdBackward97" precision="FP32" type="ReLU">
			<input>
				<port id="0">
					<dim>1</dim>
					<dim>128</dim>
					<dim>32</dim>
					<dim>64</dim>
				</port>
			</input>
			<output>
				<port id="1">
					<dim>1</dim>
					<dim>128</dim>
					<dim>32</dim>
					<dim>64</dim>
				</port>
			</output>
		</layer>
		<layer id="65" name="ConvNdBackward98" precision="FP32" type="Convolution">
			<data dilations="1,1" group="1" kernel="3,3" output="128" pads_begin="1,1" pads_end="1,1" strides="1,1"/>
			<input>
				<port id="0">
					<dim>1</dim>
					<dim>128</dim>
					<dim>32</dim>
					<dim>64</dim>
				</port>
			</input>
			<output>
				<port id="3">
					<dim>1</dim>
					<dim>128</dim>
					<dim>32</dim>
					<dim>64</dim>
				</port>
			</output>
			<blobs>
				<weights offset="1702040" size="589824"/>
				<biases offset="2291864" size="512"/>
			</blobs>
		</layer>
		<layer id="66" name="ThresholdBackward100" precision="FP32" type="ReLU">
			<input>
				<port id="0">
					<dim>1</dim>
					<dim>128</dim>
					<dim>32</dim>
					<dim>64</dim>
				</port>
			</input>
			<output>
				<port id="1">
					<dim>1</dim>
					<dim>128</dim>
					<dim>32</dim>
					<dim>64</dim>
				</port>
			</output>
		</layer>
		<layer id="67" name="ConvNdBackward101" precision="FP32" type="Convolution">
			<data dilations="1,1" group="1" kernel="1,1" output="512" pads_begin="0,0" pads_end="0,0" strides="1,1"/>
			<input>
				<port id="0">
					<dim>1</dim>
					<dim>128</dim>
					<dim>32</dim>
					<dim>64</dim>
				</port>
			</input>
			<output>
				<port id="3">
					<dim>1</dim>
					<dim>512</dim>
					<dim>32</dim>
					<dim>64</dim>
				</port>
			</output>
			<blobs>
				<weights offset="2292376" size="262144"/>
				<biases offset="2554520" size="2048"/>
			</blobs>
		</layer>
		<layer id="68" name="ConvNdBackward104" precision="FP32" type="Convolution">
			<data dilations="1,1" group="1" kernel="1,1" output="512" pads_begin="0,0" pads_end="0,0" strides="1,1"/>
			<input>
				<port id="0">
					<dim>1</dim>
					<dim>256</dim>
					<dim>32</dim>
					<dim>64</dim>
				</port>
			</input>
			<output>
				<port id="3">
					<dim>1</dim>
					<dim>512</dim>
					<dim>32</dim>
					<dim>64</dim>
				</port>
			</output>
			<blobs>
				<weights offset="2556568" size="524288"/>
				<biases offset="3080856" size="2048"/>
			</blobs>
		</layer>
		<layer id="69" name="AddBackward1106" precision="FP32" type="Eltwise">
			<data operation="sum"/>
			<input>
				<port id="0">
					<dim>1</dim>
					<dim>512</dim>
					<dim>32</dim>
					<dim>64</dim>
				</port>
				<port id="1">
					<dim>1</dim>
					<dim>512</dim>
					<dim>32</dim>
					<dim>64</dim>
				</port>
			</input>
			<output>
				<port id="2">
					<dim>1</dim>
					<dim>512</dim>
					<dim>32</dim>
					<dim>64</dim>
				</port>
			</output>
		</layer>
		<layer id="70" name="ThresholdBackward107" precision="FP32" type="ReLU">
			<input>
				<port id="0">
					<dim>1</dim>
					<dim>512</dim>
					<dim>32</dim>
					<dim>64</dim>
				</port>
			</input>
			<output>
				<port id="1">
					<dim>1</dim>
					<dim>512</dim>
					<dim>32</dim>
					<dim>64</dim>
				</port>
			</output>
		</layer>
		<layer id="71" name="ConvNdBackward108" precision="FP32" type="Convolution">
			<data dilations="1,1" group="1" kernel="1,1" output="128" pads_begin="0,0" pads_end="0,0" strides="1,1"/>
			<input>
				<port id="0">
					<dim>1</dim>
					<dim>512</dim>
					<dim>32</dim>
					<dim>64</dim>
				</port>
			</input>
			<output>
				<port id="3">
					<dim>1</dim>
					<dim>128</dim>
					<dim>32</dim>
					<dim>64</dim>
				</port>
			</output>
			<blobs>
				<weights offset="3082904" size="262144"/>
				<biases offset="3345048" size="512"/>
			</blobs>
		</layer>
		<layer id="72" name="ThresholdBackward110" precision="FP32" type="ReLU">
			<input>
				<port id="0">
					<dim>1</dim>
					<dim>128</dim>
					<dim>32</dim>
					<dim>64</dim>
				</port>
			</input>
			<output>
				<port id="1">
					<dim>1</dim>
					<dim>128</dim>
					<dim>32</dim>
					<dim>64</dim>
				</port>
			</output>
		</layer>
		<layer id="73" name="ConvNdBackward111" precision="FP32" type="Convolution">
			<data dilations="2,2" group="1" kernel="3,3" output="128" pads_begin="2,2" pads_end="2,2" strides="1,1"/>
			<input>
				<port id="0">
					<dim>1</dim>
					<dim>128</dim>
					<dim>32</dim>
					<dim>64</dim>
				</port>
			</input>
			<output>
				<port id="3">
					<dim>1</dim>
					<dim>128</dim>
					<dim>32</dim>
					<dim>64</dim>
				</port>
			</output>
			<blobs>
				<weights offset="3345560" size="589824"/>
				<biases offset="3935384" size="512"/>
			</blobs>
		</layer>
		<layer id="74" name="ThresholdBackward113" precision="FP32" type="ReLU">
			<input>
				<port id="0">
					<dim>1</dim>
					<dim>128</dim>
					<dim>32</dim>
					<dim>64</dim>
				</port>
			</input>
			<output>
				<port id="1">
					<dim>1</dim>
					<dim>128</dim>
					<dim>32</dim>
					<dim>64</dim>
				</port>
			</output>
		</layer>
		<layer id="75" name="ConvNdBackward114" precision="FP32" type="Convolution">
			<data dilations="1,1" group="1" kernel="1,1" output="512" pads_begin="0,0" pads_end="0,0" strides="1,1"/>
			<input>
				<port id="0">
					<dim>1</dim>
					<dim>128</dim>
					<dim>32</dim>
					<dim>64</dim>
				</port>
			</input>
			<output>
				<port id="3">
					<dim>1</dim>
					<dim>512</dim>
					<dim>32</dim>
					<dim>64</dim>
				</port>
			</output>
			<blobs>
				<weights offset="3935896" size="262144"/>
				<biases offset="4198040" size="2048"/>
			</blobs>
		</layer>
		<layer id="76" name="AddBackward1117" precision="FP32" type="Eltwise">
			<data operation="sum"/>
			<input>
				<port id="0">
					<dim>1</dim>
					<dim>512</dim>
					<dim>32</dim>
					<dim>64</dim>
				</port>
				<port id="1">
					<dim>1</dim>
					<dim>512</dim>
					<dim>32</dim>
					<dim>64</dim>
				</port>
			</input>
			<output>
				<port id="2">
					<dim>1</dim>
					<dim>512</dim>
					<dim>32</dim>
					<dim>64</dim>
				</port>
			</output>
		</layer>
		<layer id="77" name="ThresholdBackward118" precision="FP32" type="ReLU">
			<input>
				<port id="0">
					<dim>1</dim>
					<dim>512</dim>
					<dim>32</dim>
					<dim>64</dim>
				</port>
			</input>
			<output>
				<port id="1">
					<dim>1</dim>
					<dim>512</dim>
					<dim>32</dim>
					<dim>64</dim>
				</port>
			</output>
		</layer>
		<layer id="78" name="ConvNdBackward119" precision="FP32" type="Convolution">
			<data dilations="1,1" group="1" kernel="1,1" output="128" pads_begin="0,0" pads_end="0,0" strides="1,1"/>
			<input>
				<port id="0">
					<dim>1</dim>
					<dim>512</dim>
					<dim>32</dim>
					<dim>64</dim>
				</port>
			</input>
			<output>
				<port id="3">
					<dim>1</dim>
					<dim>128</dim>
					<dim>32</dim>
					<dim>64</dim>
				</port>
			</output>
			<blobs>
				<weights offset="4200088" size="262144"/>
				<biases offset="4462232" size="512"/>
			</blobs>
		</layer>
		<layer id="79" name="ThresholdBackward121" precision="FP32" type="ReLU">
			<input>
				<port id="0">
					<dim>1</dim>
					<dim>128</dim>
					<dim>32</dim>
					<dim>64</dim>
				</port>
			</input>
			<output>
				<port id="1">
					<dim>1</dim>
					<dim>128</dim>
					<dim>32</dim>
					<dim>64</dim>
				</port>
			</output>
		</layer>
		<layer id="80" name="ConvNdBackward122" precision="FP32" type="Convolution">
			<data dilations="2,2" group="1" kernel="3,3" output="128" pads_begin="2,2" pads_end="2,2" strides="1,1"/>
			<input>
				<port id="0">
					<dim>1</dim>
					<dim>128</dim>
					<dim>32</dim>
					<dim>64</dim>
				</port>
			</input>
			<output>
				<port id="3">
					<dim>1</dim>
					<dim>128</dim>
					<dim>32</dim>
					<dim>64</dim>
				</port>
			</output>
			<blobs>
				<weights offset="4462744" size="589824"/>
				<biases offset="5052568" size="512"/>
			</blobs>
		</layer>
		<layer id="81" name="ThresholdBackward124" precision="FP32" type="ReLU">
			<input>
				<port id="0">
					<dim>1</dim>
					<dim>128</dim>
					<dim>32</dim>
					<dim>64</dim>
				</port>
			</input>
			<output>
				<port id="1">
					<dim>1</dim>
					<dim>128</dim>
					<dim>32</dim>
					<dim>64</dim>
				</port>
			</output>
		</layer>
		<layer id="82" name="ConvNdBackward125" precision="FP32" type="Convolution">
			<data dilations="1,1" group="1" kernel="1,1" output="512" pads_begin="0,0" pads_end="0,0" strides="1,1"/>
			<input>
				<port id="0">
					<dim>1</dim>
					<dim>128</dim>
					<dim>32</dim>
					<dim>64</dim>
				</port>
			</input>
			<output>
				<port id="3">
					<dim>1</dim>
					<dim>512</dim>
					<dim>32</dim>
					<dim>64</dim>
				</port>
			</output>
			<blobs>
				<weights offset="5053080" size="262144"/>
				<biases offset="5315224" size="2048"/>
			</blobs>
		</layer>
		<layer id="83" name="AddBackward1128" precision="FP32" type="Eltwise">
			<data operation="sum"/>
			<input>
				<port id="0">
					<dim>1</dim>
					<dim>512</dim>
					<dim>32</dim>
					<dim>64</dim>
				</port>
				<port id="1">
					<dim>1</dim>
					<dim>512</dim>
					<dim>32</dim>
					<dim>64</dim>
				</port>
			</input>
			<output>
				<port id="2">
					<dim>1</dim>
					<dim>512</dim>
					<dim>32</dim>
					<dim>64</dim>
				</port>
			</output>
		</layer>
		<layer id="84" name="ThresholdBackward129" precision="FP32" type="ReLU">
			<input>
				<port id="0">
					<dim>1</dim>
					<dim>512</dim>
					<dim>32</dim>
					<dim>64</dim>
				</port>
			</input>
			<output>
				<port id="1">
					<dim>1</dim>
					<dim>512</dim>
					<dim>32</dim>
					<dim>64</dim>
				</port>
			</output>
		</layer>
		<layer id="85" name="ConvNdBackward130" precision="FP32" type="Convolution">
			<data dilations="1,1" group="1" kernel="1,1" output="128" pads_begin="0,0" pads_end="0,0" strides="1,1"/>
			<input>
				<port id="0">
					<dim>1</dim>
					<dim>512</dim>
					<dim>32</dim>
					<dim>64</dim>
				</port>
			</input>
			<output>
				<port id="3">
					<dim>1</dim>
					<dim>128</dim>
					<dim>32</dim>
					<dim>64</dim>
				</port>
			</output>
			<blobs>
				<weights offset="5317272" size="262144"/>
				<biases offset="5579416" size="512"/>
			</blobs>
		</layer>
		<layer id="86" name="ThresholdBackward132" precision="FP32" type="ReLU">
			<input>
				<port id="0">
					<dim>1</dim>
					<dim>128</dim>
					<dim>32</dim>
					<dim>64</dim>
				</port>
			</input>
			<output>
				<port id="1">
					<dim>1</dim>
					<dim>128</dim>
					<dim>32</dim>
					<dim>64</dim>
				</port>
			</output>
		</layer>
		<layer id="87" name="ConvNdBackward133" precision="FP32" type="Convolution">
			<data dilations="2,2" group="1" kernel="3,3" output="128" pads_begin="2,2" pads_end="2,2" strides="1,1"/>
			<input>
				<port id="0">
					<dim>1</dim>
					<dim>128</dim>
					<dim>32</dim>
					<dim>64</dim>
				</port>
			</input>
			<output>
				<port id="3">
					<dim>1</dim>
					<dim>128</dim>
					<dim>32</dim>
					<dim>64</dim>
				</port>
			</output>
			<blobs>
				<weights offset="5579928" size="589824"/>
				<biases offset="6169752" size="512"/>
			</blobs>
		</layer>
		<layer id="88" name="ThresholdBackward135" precision="FP32" type="ReLU">
			<input>
				<port id="0">
					<dim>1</dim>
					<dim>128</dim>
					<dim>32</dim>
					<dim>64</dim>
				</port>
			</input>
			<output>
				<port id="1">
					<dim>1</dim>
					<dim>128</dim>
					<dim>32</dim>
					<dim>64</dim>
				</port>
			</output>
		</layer>
		<layer id="89" name="ConvNdBackward136" precision="FP32" type="Convolution">
			<data dilations="1,1" group="1" kernel="1,1" output="512" pads_begin="0,0" pads_end="0,0" strides="1,1"/>
			<input>
				<port id="0">
					<dim>1</dim>
					<dim>128</dim>
					<dim>32</dim>
					<dim>64</dim>
				</port>
			</input>
			<output>
				<port id="3">
					<dim>1</dim>
					<dim>512</dim>
					<dim>32</dim>
					<dim>64</dim>
				</port>
			</output>
			<blobs>
				<weights offset="6170264" size="262144"/>
				<biases offset="6432408" size="2048"/>
			</blobs>
		</layer>
		<layer id="90" name="AddBackward1139" precision="FP32" type="Eltwise">
			<data operation="sum"/>
			<input>
				<port id="0">
					<dim>1</dim>
					<dim>512</dim>
					<dim>32</dim>
					<dim>64</dim>
				</port>
				<port id="1">
					<dim>1</dim>
					<dim>512</dim>
					<dim>32</dim>
					<dim>64</dim>
				</port>
			</input>
			<output>
				<port id="2">
					<dim>1</dim>
					<dim>512</dim>
					<dim>32</dim>
					<dim>64</dim>
				</port>
			</output>
		</layer>
		<layer id="91" name="ThresholdBackward140" precision="FP32" type="ReLU">
			<input>
				<port id="0">
					<dim>1</dim>
					<dim>512</dim>
					<dim>32</dim>
					<dim>64</dim>
				</port>
			</input>
			<output>
				<port id="1">
					<dim>1</dim>
					<dim>512</dim>
					<dim>32</dim>
					<dim>64</dim>
				</port>
			</output>
		</layer>
		<layer id="92" name="ConvNdBackward141" precision="FP32" type="Convolution">
			<data dilations="1,1" group="1" kernel="1,1" output="128" pads_begin="0,0" pads_end="0,0" strides="1,1"/>
			<input>
				<port id="0">
					<dim>1</dim>
					<dim>512</dim>
					<dim>32</dim>
					<dim>64</dim>
				</port>
			</input>
			<output>
				<port id="3">
					<dim>1</dim>
					<dim>128</dim>
					<dim>32</dim>
					<dim>64</dim>
				</port>
			</output>
			<blobs>
				<weights offset="6434456" size="262144"/>
				<biases offset="6696600" size="512"/>
			</blobs>
		</layer>
		<layer id="93" name="ThresholdBackward143" precision="FP32" type="ReLU">
			<input>
				<port id="0">
					<dim>1</dim>
					<dim>128</dim>
					<dim>32</dim>
					<dim>64</dim>
				</port>
			</input>
			<output>
				<port id="1">
					<dim>1</dim>
					<dim>128</dim>
					<dim>32</dim>
					<dim>64</dim>
				</port>
			</output>
		</layer>
		<layer id="94" name="ConvNdBackward144" precision="FP32" type="Convolution">
			<data dilations="2,2" group="1" kernel="3,3" output="128" pads_begin="2,2" pads_end="2,2" strides="1,1"/>
			<input>
				<port id="0">
					<dim>1</dim>
					<dim>128</dim>
					<dim>32</dim>
					<dim>64</dim>
				</port>
			</input>
			<output>
				<port id="3">
					<dim>1</dim>
					<dim>128</dim>
					<dim>32</dim>
					<dim>64</dim>
				</port>
			</output>
			<blobs>
				<weights offset="6697112" size="589824"/>
				<biases offset="7286936" size="512"/>
			</blobs>
		</layer>
		<layer id="95" name="ThresholdBackward146" precision="FP32" type="ReLU">
			<input>
				<port id="0">
					<dim>1</dim>
					<dim>128</dim>
					<dim>32</dim>
					<dim>64</dim>
				</port>
			</input>
			<output>
				<port id="1">
					<dim>1</dim>
					<dim>128</dim>
					<dim>32</dim>
					<dim>64</dim>
				</port>
			</output>
		</layer>
		<layer id="96" name="ConvNdBackward147" precision="FP32" type="Convolution">
			<data dilations="1,1" group="1" kernel="1,1" output="512" pads_begin="0,0" pads_end="0,0" strides="1,1"/>
			<input>
				<port id="0">
					<dim>1</dim>
					<dim>128</dim>
					<dim>32</dim>
					<dim>64</dim>
				</port>
			</input>
			<output>
				<port id="3">
					<dim>1</dim>
					<dim>512</dim>
					<dim>32</dim>
					<dim>64</dim>
				</port>
			</output>
			<blobs>
				<weights offset="7287448" size="262144"/>
				<biases offset="7549592" size="2048"/>
			</blobs>
		</layer>
		<layer id="97" name="AddBackward1150" precision="FP32" type="Eltwise">
			<data operation="sum"/>
			<input>
				<port id="0">
					<dim>1</dim>
					<dim>512</dim>
					<dim>32</dim>
					<dim>64</dim>
				</port>
				<port id="1">
					<dim>1</dim>
					<dim>512</dim>
					<dim>32</dim>
					<dim>64</dim>
				</port>
			</input>
			<output>
				<port id="2">
					<dim>1</dim>
					<dim>512</dim>
					<dim>32</dim>
					<dim>64</dim>
				</port>
			</output>
		</layer>
		<layer id="98" name="ThresholdBackward151" precision="FP32" type="ReLU">
			<input>
				<port id="0">
					<dim>1</dim>
					<dim>512</dim>
					<dim>32</dim>
					<dim>64</dim>
				</port>
			</input>
			<output>
				<port id="1">
					<dim>1</dim>
					<dim>512</dim>
					<dim>32</dim>
					<dim>64</dim>
				</port>
			</output>
		</layer>
		<layer id="99" name="ConvNdBackward152" precision="FP32" type="Convolution">
			<data dilations="1,1" group="1" kernel="1,1" output="128" pads_begin="0,0" pads_end="0,0" strides="1,1"/>
			<input>
				<port id="0">
					<dim>1</dim>
					<dim>512</dim>
					<dim>32</dim>
					<dim>64</dim>
				</port>
			</input>
			<output>
				<port id="3">
					<dim>1</dim>
					<dim>128</dim>
					<dim>32</dim>
					<dim>64</dim>
				</port>
			</output>
			<blobs>
				<weights offset="7551640" size="262144"/>
				<biases offset="7813784" size="512"/>
			</blobs>
		</layer>
		<layer id="100" name="ThresholdBackward154" precision="FP32" type="ReLU">
			<input>
				<port id="0">
					<dim>1</dim>
					<dim>128</dim>
					<dim>32</dim>
					<dim>64</dim>
				</port>
			</input>
			<output>
				<port id="1">
					<dim>1</dim>
					<dim>128</dim>
					<dim>32</dim>
					<dim>64</dim>
				</port>
			</output>
		</layer>
		<layer id="101" name="ConvNdBackward155" precision="FP32" type="Convolution">
			<data dilations="2,2" group="1" kernel="3,3" output="128" pads_begin="2,2" pads_end="2,2" strides="1,1"/>
			<input>
				<port id="0">
					<dim>1</dim>
					<dim>128</dim>
					<dim>32</dim>
					<dim>64</dim>
				</port>
			</input>
			<output>
				<port id="3">
					<dim>1</dim>
					<dim>128</dim>
					<dim>32</dim>
					<dim>64</dim>
				</port>
			</output>
			<blobs>
				<weights offset="7814296" size="589824"/>
				<biases offset="8404120" size="512"/>
			</blobs>
		</layer>
		<layer id="102" name="ThresholdBackward157" precision="FP32" type="ReLU">
			<input>
				<port id="0">
					<dim>1</dim>
					<dim>128</dim>
					<dim>32</dim>
					<dim>64</dim>
				</port>
			</input>
			<output>
				<port id="1">
					<dim>1</dim>
					<dim>128</dim>
					<dim>32</dim>
					<dim>64</dim>
				</port>
			</output>
		</layer>
		<layer id="103" name="ConvNdBackward158" precision="FP32" type="Convolution">
			<data dilations="1,1" group="1" kernel="1,1" output="512" pads_begin="0,0" pads_end="0,0" strides="1,1"/>
			<input>
				<port id="0">
					<dim>1</dim>
					<dim>128</dim>
					<dim>32</dim>
					<dim>64</dim>
				</port>
			</input>
			<output>
				<port id="3">
					<dim>1</dim>
					<dim>512</dim>
					<dim>32</dim>
					<dim>64</dim>
				</port>
			</output>
			<blobs>
				<weights offset="8404632" size="262144"/>
				<biases offset="8666776" size="2048"/>
			</blobs>
		</layer>
		<layer id="104" name="AddBackward1161" precision="FP32" type="Eltwise">
			<data operation="sum"/>
			<input>
				<port id="0">
					<dim>1</dim>
					<dim>512</dim>
					<dim>32</dim>
					<dim>64</dim>
				</port>
				<port id="1">
					<dim>1</dim>
					<dim>512</dim>
					<dim>32</dim>
					<dim>64</dim>
				</port>
			</input>
			<output>
				<port id="2">
					<dim>1</dim>
					<dim>512</dim>
					<dim>32</dim>
					<dim>64</dim>
				</port>
			</output>
		</layer>
		<layer id="105" name="ThresholdBackward162" precision="FP32" type="ReLU">
			<input>
				<port id="0">
					<dim>1</dim>
					<dim>512</dim>
					<dim>32</dim>
					<dim>64</dim>
				</port>
			</input>
			<output>
				<port id="1">
					<dim>1</dim>
					<dim>512</dim>
					<dim>32</dim>
					<dim>64</dim>
				</port>
			</output>
		</layer>
		<layer id="106" name="ConvNdBackward163" precision="FP32" type="Convolution">
			<data dilations="1,1" group="1" kernel="1,1" output="256" pads_begin="0,0" pads_end="0,0" strides="1,1"/>
			<input>
				<port id="0">
					<dim>1</dim>
					<dim>512</dim>
					<dim>32</dim>
					<dim>64</dim>
				</port>
			</input>
			<output>
				<port id="3">
					<dim>1</dim>
					<dim>256</dim>
					<dim>32</dim>
					<dim>64</dim>
				</port>
			</output>
			<blobs>
				<weights offset="8668824" size="524288"/>
				<biases offset="9193112" size="1024"/>
			</blobs>
		</layer>
		<layer id="107" name="ThresholdBackward165" precision="FP32" type="ReLU">
			<input>
				<port id="0">
					<dim>1</dim>
					<dim>256</dim>
					<dim>32</dim>
					<dim>64</dim>
				</port>
			</input>
			<output>
				<port id="1">
					<dim>1</dim>
					<dim>256</dim>
					<dim>32</dim>
					<dim>64</dim>
				</port>
			</output>
		</layer>
		<layer id="108" name="ConvNdBackward166" precision="FP32" type="Convolution">
			<data dilations="1,1" group="1" kernel="3,3" output="256" pads_begin="1,1" pads_end="1,1" strides="1,1"/>
			<input>
				<port id="0">
					<dim>1</dim>
					<dim>256</dim>
					<dim>32</dim>
					<dim>64</dim>
				</port>
			</input>
			<output>
				<port id="3">
					<dim>1</dim>
					<dim>256</dim>
					<dim>32</dim>
					<dim>64</dim>
				</port>
			</output>
			<blobs>
				<weights offset="9194136" size="2359296"/>
				<biases offset="11553432" size="1024"/>
			</blobs>
		</layer>
		<layer id="109" name="ThresholdBackward168" precision="FP32" type="ReLU">
			<input>
				<port id="0">
					<dim>1</dim>
					<dim>256</dim>
					<dim>32</dim>
					<dim>64</dim>
				</port>
			</input>
			<output>
				<port id="1">
					<dim>1</dim>
					<dim>256</dim>
					<dim>32</dim>
					<dim>64</dim>
				</port>
			</output>
		</layer>
		<layer id="110" name="ConvNdBackward169" precision="FP32" type="Convolution">
			<data dilations="1,1" group="1" kernel="1,1" output="1024" pads_begin="0,0" pads_end="0,0" strides="1,1"/>
			<input>
				<port id="0">
					<dim>1</dim>
					<dim>256</dim>
					<dim>32</dim>
					<dim>64</dim>
				</port>
			</input>
			<output>
				<port id="3">
					<dim>1</dim>
					<dim>1024</dim>
					<dim>32</dim>
					<dim>64</dim>
				</port>
			</output>
			<blobs>
				<weights offset="11554456" size="1048576"/>
				<biases offset="12603032" size="4096"/>
			</blobs>
		</layer>
		<layer id="111" name="ConvNdBackward172" precision="FP32" type="Convolution">
			<data dilations="1,1" group="1" kernel="1,1" output="1024" pads_begin="0,0" pads_end="0,0" strides="1,1"/>
			<input>
				<port id="0">
					<dim>1</dim>
					<dim>512</dim>
					<dim>32</dim>
					<dim>64</dim>
				</port>
			</input>
			<output>
				<port id="3">
					<dim>1</dim>
					<dim>1024</dim>
					<dim>32</dim>
					<dim>64</dim>
				</port>
			</output>
			<blobs>
				<weights offset="12607128" size="2097152"/>
				<biases offset="14704280" size="4096"/>
			</blobs>
		</layer>
		<layer id="112" name="AddBackward1174" precision="FP32" type="Eltwise">
			<data operation="sum"/>
			<input>
				<port id="0">
					<dim>1</dim>
					<dim>1024</dim>
					<dim>32</dim>
					<dim>64</dim>
				</port>
				<port id="1">
					<dim>1</dim>
					<dim>1024</dim>
					<dim>32</dim>
					<dim>64</dim>
				</port>
			</input>
			<output>
				<port id="2">
					<dim>1</dim>
					<dim>1024</dim>
					<dim>32</dim>
					<dim>64</dim>
				</port>
			</output>
		</layer>
		<layer id="113" name="ThresholdBackward175" precision="FP32" type="ReLU">
			<input>
				<port id="0">
					<dim>1</dim>
					<dim>1024</dim>
					<dim>32</dim>
					<dim>64</dim>
				</port>
			</input>
			<output>
				<port id="1">
					<dim>1</dim>
					<dim>1024</dim>
					<dim>32</dim>
					<dim>64</dim>
				</port>
			</output>
		</layer>
		<layer id="114" name="ConvNdBackward176" precision="FP32" type="Convolution">
			<data dilations="1,1" group="1" kernel="1,1" output="256" pads_begin="0,0" pads_end="0,0" strides="1,1"/>
			<input>
				<port id="0">
					<dim>1</dim>
					<dim>1024</dim>
					<dim>32</dim>
					<dim>64</dim>
				</port>
			</input>
			<output>
				<port id="3">
					<dim>1</dim>
					<dim>256</dim>
					<dim>32</dim>
					<dim>64</dim>
				</port>
			</output>
			<blobs>
				<weights offset="14708376" size="1048576"/>
				<biases offset="15756952" size="1024"/>
			</blobs>
		</layer>
		<layer id="115" name="ThresholdBackward178" precision="FP32" type="ReLU">
			<input>
				<port id="0">
					<dim>1</dim>
					<dim>256</dim>
					<dim>32</dim>
					<dim>64</dim>
				</port>
			</input>
			<output>
				<port id="1">
					<dim>1</dim>
					<dim>256</dim>
					<dim>32</dim>
					<dim>64</dim>
				</port>
			</output>
		</layer>
		<layer id="116" name="ConvNdBackward179" precision="FP32" type="Convolution">
			<data dilations="4,4" group="1" kernel="3,3" output="256" pads_begin="4,4" pads_end="4,4" strides="1,1"/>
			<input>
				<port id="0">
					<dim>1</dim>
					<dim>256</dim>
					<dim>32</dim>
					<dim>64</dim>
				</port>
			</input>
			<output>
				<port id="3">
					<dim>1</dim>
					<dim>256</dim>
					<dim>32</dim>
					<dim>64</dim>
				</port>
			</output>
			<blobs>
				<weights offset="15757976" size="2359296"/>
				<biases offset="18117272" size="1024"/>
			</blobs>
		</layer>
		<layer id="117" name="ThresholdBackward181" precision="FP32" type="ReLU">
			<input>
				<port id="0">
					<dim>1</dim>
					<dim>256</dim>
					<dim>32</dim>
					<dim>64</dim>
				</port>
			</input>
			<output>
				<port id="1">
					<dim>1</dim>
					<dim>256</dim>
					<dim>32</dim>
					<dim>64</dim>
				</port>
			</output>
		</layer>
		<layer id="118" name="ConvNdBackward182" precision="FP32" type="Convolution">
			<data dilations="1,1" group="1" kernel="1,1" output="1024" pads_begin="0,0" pads_end="0,0" strides="1,1"/>
			<input>
				<port id="0">
					<dim>1</dim>
					<dim>256</dim>
					<dim>32</dim>
					<dim>64</dim>
				</port>
			</input>
			<output>
				<port id="3">
					<dim>1</dim>
					<dim>1024</dim>
					<dim>32</dim>
					<dim>64</dim>
				</port>
			</output>
			<blobs>
				<weights offset="18118296" size="1048576"/>
				<biases offset="19166872" size="4096"/>
			</blobs>
		</layer>
		<layer id="119" name="AddBackward1185" precision="FP32" type="Eltwise">
			<data operation="sum"/>
			<input>
				<port id="0">
					<dim>1</dim>
					<dim>1024</dim>
					<dim>32</dim>
					<dim>64</dim>
				</port>
				<port id="1">
					<dim>1</dim>
					<dim>1024</dim>
					<dim>32</dim>
					<dim>64</dim>
				</port>
			</input>
			<output>
				<port id="2">
					<dim>1</dim>
					<dim>1024</dim>
					<dim>32</dim>
					<dim>64</dim>
				</port>
			</output>
		</layer>
		<layer id="120" name="ThresholdBackward186" precision="FP32" type="ReLU">
			<input>
				<port id="0">
					<dim>1</dim>
					<dim>1024</dim>
					<dim>32</dim>
					<dim>64</dim>
				</port>
			</input>
			<output>
				<port id="1">
					<dim>1</dim>
					<dim>1024</dim>
					<dim>32</dim>
					<dim>64</dim>
				</port>
			</output>
		</layer>
		<layer id="121" name="ConvNdBackward187" precision="FP32" type="Convolution">
			<data dilations="1,1" group="1" kernel="1,1" output="256" pads_begin="0,0" pads_end="0,0" strides="1,1"/>
			<input>
				<port id="0">
					<dim>1</dim>
					<dim>1024</dim>
					<dim>32</dim>
					<dim>64</dim>
				</port>
			</input>
			<output>
				<port id="3">
					<dim>1</dim>
					<dim>256</dim>
					<dim>32</dim>
					<dim>64</dim>
				</port>
			</output>
			<blobs>
				<weights offset="19170968" size="1048576"/>
				<biases offset="20219544" size="1024"/>
			</blobs>
		</layer>
		<layer id="122" name="ThresholdBackward189" precision="FP32" type="ReLU">
			<input>
				<port id="0">
					<dim>1</dim>
					<dim>256</dim>
					<dim>32</dim>
					<dim>64</dim>
				</port>
			</input>
			<output>
				<port id="1">
					<dim>1</dim>
					<dim>256</dim>
					<dim>32</dim>
					<dim>64</dim>
				</port>
			</output>
		</layer>
		<layer id="123" name="ConvNdBackward190" precision="FP32" type="Convolution">
			<data dilations="4,4" group="1" kernel="3,3" output="256" pads_begin="4,4" pads_end="4,4" strides="1,1"/>
			<input>
				<port id="0">
					<dim>1</dim>
					<dim>256</dim>
					<dim>32</dim>
					<dim>64</dim>
				</port>
			</input>
			<output>
				<port id="3">
					<dim>1</dim>
					<dim>256</dim>
					<dim>32</dim>
					<dim>64</dim>
				</port>
			</output>
			<blobs>
				<weights offset="20220568" size="2359296"/>
				<biases offset="22579864" size="1024"/>
			</blobs>
		</layer>
		<layer id="124" name="ThresholdBackward192" precision="FP32" type="ReLU">
			<input>
				<port id="0">
					<dim>1</dim>
					<dim>256</dim>
					<dim>32</dim>
					<dim>64</dim>
				</port>
			</input>
			<output>
				<port id="1">
					<dim>1</dim>
					<dim>256</dim>
					<dim>32</dim>
					<dim>64</dim>
				</port>
			</output>
		</layer>
		<layer id="125" name="ConvNdBackward193" precision="FP32" type="Convolution">
			<data dilations="1,1" group="1" kernel="1,1" output="1024" pads_begin="0,0" pads_end="0,0" strides="1,1"/>
			<input>
				<port id="0">
					<dim>1</dim>
					<dim>256</dim>
					<dim>32</dim>
					<dim>64</dim>
				</port>
			</input>
			<output>
				<port id="3">
					<dim>1</dim>
					<dim>1024</dim>
					<dim>32</dim>
					<dim>64</dim>
				</port>
			</output>
			<blobs>
				<weights offset="22580888" size="1048576"/>
				<biases offset="23629464" size="4096"/>
			</blobs>
		</layer>
		<layer id="126" name="AddBackward1196" precision="FP32" type="Eltwise">
			<data operation="sum"/>
			<input>
				<port id="0">
					<dim>1</dim>
					<dim>1024</dim>
					<dim>32</dim>
					<dim>64</dim>
				</port>
				<port id="1">
					<dim>1</dim>
					<dim>1024</dim>
					<dim>32</dim>
					<dim>64</dim>
				</port>
			</input>
			<output>
				<port id="2">
					<dim>1</dim>
					<dim>1024</dim>
					<dim>32</dim>
					<dim>64</dim>
				</port>
			</output>
		</layer>
		<layer id="127" name="ThresholdBackward197" precision="FP32" type="ReLU">
			<input>
				<port id="0">
					<dim>1</dim>
					<dim>1024</dim>
					<dim>32</dim>
					<dim>64</dim>
				</port>
			</input>
			<output>
				<port id="1">
					<dim>1</dim>
					<dim>1024</dim>
					<dim>32</dim>
					<dim>64</dim>
				</port>
			</output>
		</layer>
		<layer id="128" name="AdaptiveAvgPool2dBackward199" precision="FP32" type="Pooling">
			<data exclude-pad="false" kernel="32,64" pads_begin="0,0" pads_end="0,0" pool-method="avg" rounding_type="ceil" strides="32,64"/>
			<input>
				<port id="0">
					<dim>1</dim>
					<dim>1024</dim>
					<dim>32</dim>
					<dim>64</dim>
				</port>
			</input>
			<output>
				<port id="1">
					<dim>1</dim>
					<dim>1024</dim>
					<dim>1</dim>
					<dim>1</dim>
				</port>
			</output>
		</layer>
		<layer id="129" name="UpsamplingBilinear2dBackward200" precision="FP32" type="Interp">
			<data align_corners="1" height="32" pad_beg="0" pad_end="0" shrink_factor="1" width="64" zoom_factor="1"/>
			<input>
				<port id="0">
					<dim>1</dim>
					<dim>1024</dim>
					<dim>1</dim>
					<dim>1</dim>
				</port>
			</input>
			<output>
				<port id="1">
					<dim>1</dim>
					<dim>1024</dim>
					<dim>32</dim>
					<dim>64</dim>
				</port>
			</output>
		</layer>
		<layer id="130" name="AddBackward1201" precision="FP32" type="Eltwise">
			<data operation="sum"/>
			<input>
				<port id="0">
					<dim>1</dim>
					<dim>1024</dim>
					<dim>32</dim>
					<dim>64</dim>
				</port>
				<port id="1">
					<dim>1</dim>
					<dim>1024</dim>
					<dim>32</dim>
					<dim>64</dim>
				</port>
			</input>
			<output>
				<port id="2">
					<dim>1</dim>
					<dim>1024</dim>
					<dim>32</dim>
					<dim>64</dim>
				</port>
			</output>
		</layer>
		<layer id="131" name="AdaptiveAvgPool2dBackward203" precision="FP32" type="Pooling">
			<data exclude-pad="false" kernel="16,32" pads_begin="0,0" pads_end="0,0" pool-method="avg" rounding_type="ceil" strides="16,32"/>
			<input>
				<port id="0">
					<dim>1</dim>
					<dim>1024</dim>
					<dim>32</dim>
					<dim>64</dim>
				</port>
			</input>
			<output>
				<port id="1">
					<dim>1</dim>
					<dim>1024</dim>
					<dim>2</dim>
					<dim>2</dim>
				</port>
			</output>
		</layer>
		<layer id="132" name="UpsamplingBilinear2dBackward204" precision="FP32" type="Interp">
			<data align_corners="1" height="32" pad_beg="0" pad_end="0" shrink_factor="1" width="64" zoom_factor="1"/>
			<input>
				<port id="0">
					<dim>1</dim>
					<dim>1024</dim>
					<dim>2</dim>
					<dim>2</dim>
				</port>
			</input>
			<output>
				<port id="1">
					<dim>1</dim>
					<dim>1024</dim>
					<dim>32</dim>
					<dim>64</dim>
				</port>
			</output>
		</layer>
		<layer id="133" name="AddBackward1205" precision="FP32" type="Eltwise">
			<data operation="sum"/>
			<input>
				<port id="0">
					<dim>1</dim>
					<dim>1024</dim>
					<dim>32</dim>
					<dim>64</dim>
				</port>
				<port id="1">
					<dim>1</dim>
					<dim>1024</dim>
					<dim>32</dim>
					<dim>64</dim>
				</port>
			</input>
			<output>
				<port id="2">
					<dim>1</dim>
					<dim>1024</dim>
					<dim>32</dim>
					<dim>64</dim>
				</port>
			</output>
		</layer>
		<layer id="134" name="AdaptiveAvgPool2dBackward207" precision="FP32" type="Pooling">
			<data exclude-pad="false" kernel="12,22" pads_begin="0,0" pads_end="0,0" pool-method="avg" rounding_type="ceil" strides="11,22"/>
			<input>
				<port id="0">
					<dim>1</dim>
					<dim>1024</dim>
					<dim>32</dim>
					<dim>64</dim>
				</port>
			</input>
			<output>
				<port id="1">
					<dim>1</dim>
					<dim>1024</dim>
					<dim>3</dim>
					<dim>3</dim>
				</port>
			</output>
		</layer>
		<layer id="135" name="UpsamplingBilinear2dBackward208" precision="FP32" type="Interp">
			<data align_corners="1" height="32" pad_beg="0" pad_end="0" shrink_factor="1" width="64" zoom_factor="1"/>
			<input>
				<port id="0">
					<dim>1</dim>
					<dim>1024</dim>
					<dim>3</dim>
					<dim>3</dim>
				</port>
			</input>
			<output>
				<port id="1">
					<dim>1</dim>
					<dim>1024</dim>
					<dim>32</dim>
					<dim>64</dim>
				</port>
			</output>
		</layer>
		<layer id="136" name="AddBackward1209" precision="FP32" type="Eltwise">
			<data operation="sum"/>
			<input>
				<port id="0">
					<dim>1</dim>
					<dim>1024</dim>
					<dim>32</dim>
					<dim>64</dim>
				</port>
				<port id="1">
					<dim>1</dim>
					<dim>1024</dim>
					<dim>32</dim>
					<dim>64</dim>
				</port>
			</input>
			<output>
				<port id="2">
					<dim>1</dim>
					<dim>1024</dim>
					<dim>32</dim>
					<dim>64</dim>
				</port>
			</output>
		</layer>
		<layer id="137" name="AdaptiveAvgPool2dBackward211" precision="FP32" type="Pooling">
			<data exclude-pad="false" kernel="6,12" pads_begin="0,0" pads_end="0,0" pool-method="avg" rounding_type="ceil" strides="6,11"/>
			<input>
				<port id="0">
					<dim>1</dim>
					<dim>1024</dim>
					<dim>32</dim>
					<dim>64</dim>
				</port>
			</input>
			<output>
				<port id="1">
					<dim>1</dim>
					<dim>1024</dim>
					<dim>6</dim>
					<dim>6</dim>
				</port>
			</output>
		</layer>
		<layer id="138" name="UpsamplingBilinear2dBackward212" precision="FP32" type="Interp">
			<data align_corners="1" height="32" pad_beg="0" pad_end="0" shrink_factor="1" width="64" zoom_factor="1"/>
			<input>
				<port id="0">
					<dim>1</dim>
					<dim>1024</dim>
					<dim>6</dim>
					<dim>6</dim>
				</port>
			</input>
			<output>
				<port id="1">
					<dim>1</dim>
					<dim>1024</dim>
					<dim>32</dim>
					<dim>64</dim>
				</port>
			</output>
		</layer>
		<layer id="139" name="AddBackward1213" precision="FP32" type="Eltwise">
			<data operation="sum"/>
			<input>
				<port id="0">
					<dim>1</dim>
					<dim>1024</dim>
					<dim>32</dim>
					<dim>64</dim>
				</port>
				<port id="1">
					<dim>1</dim>
					<dim>1024</dim>
					<dim>32</dim>
					<dim>64</dim>
				</port>
			</input>
			<output>
				<port id="2">
					<dim>1</dim>
					<dim>1024</dim>
					<dim>32</dim>
					<dim>64</dim>
				</port>
			</output>
		</layer>
		<layer id="140" name="ConvNdBackward214" precision="FP32" type="Convolution">
			<data dilations="1,1" group="1" kernel="1,1" output="256" pads_begin="0,0" pads_end="0,0" strides="1,1"/>
			<input>
				<port id="0">
					<dim>1</dim>
					<dim>1024</dim>
					<dim>32</dim>
					<dim>64</dim>
				</port>
			</input>
			<output>
				<port id="3">
					<dim>1</dim>
					<dim>256</dim>
					<dim>32</dim>
					<dim>64</dim>
				</port>
			</output>
			<blobs>
				<weights offset="23633560" size="1048576"/>
				<biases offset="24682136" size="1024"/>
			</blobs>
		</layer>
		<layer id="141" name="ThresholdBackward216" precision="FP32" type="ReLU">
			<input>
				<port id="0">
					<dim>1</dim>
					<dim>256</dim>
					<dim>32</dim>
					<dim>64</dim>
				</port>
			</input>
			<output>
				<port id="1">
					<dim>1</dim>
					<dim>256</dim>
					<dim>32</dim>
					<dim>64</dim>
				</port>
			</output>
		</layer>
		<layer id="142" name="UpsamplingBilinear2dBackward217" precision="FP32" type="Interp">
			<data align_corners="1" height="0" pad_beg="0" pad_end="0" shrink_factor="1" width="0" zoom_factor="2"/>
			<input>
				<port id="0">
					<dim>1</dim>
					<dim>256</dim>
					<dim>32</dim>
					<dim>64</dim>
				</port>
			</input>
			<output>
				<port id="1">
					<dim>1</dim>
					<dim>256</dim>
					<dim>64</dim>
					<dim>128</dim>
				</port>
			</output>
		</layer>
		<layer id="143" name="ConvNdBackward218" precision="FP32" type="Convolution">
			<data dilations="2,2" group="1" kernel="3,3" output="128" pads_begin="2,2" pads_end="2,2" strides="1,1"/>
			<input>
				<port id="0">
					<dim>1</dim>
					<dim>256</dim>
					<dim>64</dim>
					<dim>128</dim>
				</port>
			</input>
			<output>
				<port id="3">
					<dim>1</dim>
					<dim>128</dim>
					<dim>64</dim>
					<dim>128</dim>
				</port>
			</output>
			<blobs>
				<weights offset="24683160" size="1179648"/>
				<biases offset="25862808" size="512"/>
			</blobs>
		</layer>
		<layer id="144" name="ConvNdBackward221" precision="FP32" type="Convolution">
			<data dilations="1,1" group="1" kernel="1,1" output="128" pads_begin="0,0" pads_end="0,0" strides="1,1"/>
			<input>
				<port id="0">
					<dim>1</dim>
					<dim>256</dim>
					<dim>64</dim>
					<dim>128</dim>
				</port>
			</input>
			<output>
				<port id="3">
					<dim>1</dim>
					<dim>128</dim>
					<dim>64</dim>
					<dim>128</dim>
				</port>
			</output>
			<blobs>
				<weights offset="25863320" size="131072"/>
				<biases offset="25994392" size="512"/>
			</blobs>
		</layer>
		<layer id="145" name="AddBackward1223" precision="FP32" type="Eltwise">
			<data operation="sum"/>
			<input>
				<port id="0">
					<dim>1</dim>
					<dim>128</dim>
					<dim>64</dim>
					<dim>128</dim>
				</port>
				<port id="1">
					<dim>1</dim>
					<dim>128</dim>
					<dim>64</dim>
					<dim>128</dim>
				</port>
			</input>
			<output>
				<port id="2">
					<dim>1</dim>
					<dim>128</dim>
					<dim>64</dim>
					<dim>128</dim>
				</port>
			</output>
		</layer>
		<layer id="146" name="ThresholdBackward224" precision="FP32" type="ReLU">
			<input>
				<port id="0">
					<dim>1</dim>
					<dim>128</dim>
					<dim>64</dim>
					<dim>128</dim>
				</port>
			</input>
			<output>
				<port id="1">
					<dim>1</dim>
					<dim>128</dim>
					<dim>64</dim>
					<dim>128</dim>
				</port>
			</output>
		</layer>
		<layer id="147" name="UpsamplingBilinear2dBackward225" precision="FP32" type="Interp">
			<data align_corners="1" height="0" pad_beg="0" pad_end="0" shrink_factor="1" width="0" zoom_factor="2"/>
			<input>
				<port id="0">
					<dim>1</dim>
					<dim>128</dim>
					<dim>64</dim>
					<dim>128</dim>
				</port>
			</input>
			<output>
				<port id="1">
					<dim>1</dim>
					<dim>128</dim>
					<dim>128</dim>
					<dim>256</dim>
				</port>
			</output>
		</layer>
		<layer id="148" name="ConvNdBackward226" precision="FP32" type="Convolution">
			<data dilations="2,2" group="1" kernel="3,3" output="128" pads_begin="2,2" pads_end="2,2" strides="1,1"/>
			<input>
				<port id="0">
					<dim>1</dim>
					<dim>128</dim>
					<dim>128</dim>
					<dim>256</dim>
				</port>
			</input>
			<output>
				<port id="3">
					<dim>1</dim>
					<dim>128</dim>
					<dim>128</dim>
					<dim>256</dim>
				</port>
			</output>
			<blobs>
				<weights offset="25994904" size="589824"/>
				<biases offset="26584728" size="512"/>
			</blobs>
		</layer>
		<layer id="149" name="ConvNdBackward229" precision="FP32" type="Convolution">
			<data dilations="1,1" group="1" kernel="3,3" output="32" pads_begin="1,1" pads_end="1,1" strides="2,2"/>
			<input>
				<port id="0">
					<dim>1</dim>
					<dim>3</dim>
					<dim>1024</dim>
					<dim>2048</dim>
				</port>
			</input>
			<output>
				<port id="3">
					<dim>1</dim>
					<dim>32</dim>
					<dim>512</dim>
					<dim>1024</dim>
				</port>
			</output>
			<blobs>
				<weights offset="26585240" size="3456"/>
				<biases offset="26588696" size="128"/>
			</blobs>
		</layer>
		<layer id="150" name="ThresholdBackward231" precision="FP32" type="ReLU">
			<input>
				<port id="0">
					<dim>1</dim>
					<dim>32</dim>
					<dim>512</dim>
					<dim>1024</dim>
				</port>
			</input>
			<output>
				<port id="1">
					<dim>1</dim>
					<dim>32</dim>
					<dim>512</dim>
					<dim>1024</dim>
				</port>
			</output>
		</layer>
		<layer id="151" name="ConvNdBackward232" precision="FP32" type="Convolution">
			<data dilations="1,1" group="1" kernel="3,3" output="32" pads_begin="1,1" pads_end="1,1" strides="2,2"/>
			<input>
				<port id="0">
					<dim>1</dim>
					<dim>32</dim>
					<dim>512</dim>
					<dim>1024</dim>
				</port>
			</input>
			<output>
				<port id="3">
					<dim>1</dim>
					<dim>32</dim>
					<dim>256</dim>
					<dim>512</dim>
				</port>
			</output>
			<blobs>
				<weights offset="26588824" size="36864"/>
				<biases offset="26625688" size="128"/>
			</blobs>
		</layer>
		<layer id="152" name="ThresholdBackward234" precision="FP32" type="ReLU">
			<input>
				<port id="0">
					<dim>1</dim>
					<dim>32</dim>
					<dim>256</dim>
					<dim>512</dim>
				</port>
			</input>
			<output>
				<port id="1">
					<dim>1</dim>
					<dim>32</dim>
					<dim>256</dim>
					<dim>512</dim>
				</port>
			</output>
		</layer>
		<layer id="153" name="ConvNdBackward235" precision="FP32" type="Convolution">
			<data dilations="1,1" group="1" kernel="3,3" output="64" pads_begin="1,1" pads_end="1,1" strides="2,2"/>
			<input>
				<port id="0">
					<dim>1</dim>
					<dim>32</dim>
					<dim>256</dim>
					<dim>512</dim>
				</port>
			</input>
			<output>
				<port id="3">
					<dim>1</dim>
					<dim>64</dim>
					<dim>128</dim>
					<dim>256</dim>
				</port>
			</output>
			<blobs>
				<weights offset="26625816" size="73728"/>
				<biases offset="26699544" size="256"/>
			</blobs>
		</layer>
		<layer id="154" name="ThresholdBackward237" precision="FP32" type="ReLU">
			<input>
				<port id="0">
					<dim>1</dim>
					<dim>64</dim>
					<dim>128</dim>
					<dim>256</dim>
				</port>
			</input>
			<output>
				<port id="1">
					<dim>1</dim>
					<dim>64</dim>
					<dim>128</dim>
					<dim>256</dim>
				</port>
			</output>
		</layer>
		<layer id="155" name="ConvNdBackward238" precision="FP32" type="Convolution">
			<data dilations="1,1" group="1" kernel="1,1" output="128" pads_begin="0,0" pads_end="0,0" strides="1,1"/>
			<input>
				<port id="0">
					<dim>1</dim>
					<dim>64</dim>
					<dim>128</dim>
					<dim>256</dim>
				</port>
			</input>
			<output>
				<port id="3">
					<dim>1</dim>
					<dim>128</dim>
					<dim>128</dim>
					<dim>256</dim>
				</port>
			</output>
			<blobs>
				<weights offset="26699800" size="32768"/>
				<biases offset="26732568" size="512"/>
			</blobs>
		</layer>
		<layer id="156" name="AddBackward1240" precision="FP32" type="Eltwise">
			<data operation="sum"/>
			<input>
				<port id="0">
					<dim>1</dim>
					<dim>128</dim>
					<dim>128</dim>
					<dim>256</dim>
				</port>
				<port id="1">
					<dim>1</dim>
					<dim>128</dim>
					<dim>128</dim>
					<dim>256</dim>
				</port>
			</input>
			<output>
				<port id="2">
					<dim>1</dim>
					<dim>128</dim>
					<dim>128</dim>
					<dim>256</dim>
				</port>
			</output>
		</layer>
		<layer id="157" name="ThresholdBackward241" precision="FP32" type="ReLU">
			<input>
				<port id="0">
					<dim>1</dim>
					<dim>128</dim>
					<dim>128</dim>
					<dim>256</dim>
				</port>
			</input>
			<output>
				<port id="1">
					<dim>1</dim>
					<dim>128</dim>
					<dim>128</dim>
					<dim>256</dim>
				</port>
			</output>
		</layer>
		<layer id="158" name="UpsamplingBilinear2dBackward242" precision="FP32" type="Interp">
			<data align_corners="1" height="0" pad_beg="0" pad_end="0" shrink_factor="1" width="0" zoom_factor="2"/>
			<input>
				<port id="0">
					<dim>1</dim>
					<dim>128</dim>
					<dim>128</dim>
					<dim>256</dim>
				</port>
			</input>
			<output>
				<port id="1">
					<dim>1</dim>
					<dim>128</dim>
					<dim>256</dim>
					<dim>512</dim>
				</port>
			</output>
		</layer>
		<layer id="159" name="ConvNdBackward243" precision="FP32" type="Convolution">
			<data dilations="1,1" group="1" kernel="1,1" output="20" pads_begin="0,0" pads_end="0,0" strides="1,1"/>
			<input>
				<port id="0">
					<dim>1</dim>
					<dim>128</dim>
					<dim>256</dim>
					<dim>512</dim>
				</port>
			</input>
			<output>
				<port id="3">
					<dim>1</dim>
					<dim>20</dim>
					<dim>256</dim>
					<dim>512</dim>
				</port>
			</output>
			<blobs>
				<weights offset="26733080" size="10240"/>
				<biases offset="26743320" size="80"/>
			</blobs>
		</layer>
		<layer id="160" name="LogSoftmaxBackward244" precision="FP32" type="SoftMax">
			<data axis="1"/>
			<input>
				<port id="0">
					<dim>1</dim>
					<dim>20</dim>
					<dim>256</dim>
					<dim>512</dim>
				</port>
			</input>
			<output>
				<port id="1">
					<dim>1</dim>
					<dim>20</dim>
					<dim>256</dim>
					<dim>512</dim>
				</port>
			</output>
		</layer>
		<layer id="161" name="UpsamplingBilinear2dBackward245" precision="FP32" type="Interp">
			<data align_corners="1" height="0" pad_beg="0" pad_end="0" shrink_factor="1" width="0" zoom_factor="4"/>
			<input>
				<port id="0">
					<dim>1</dim>
					<dim>20</dim>
					<dim>256</dim>
					<dim>512</dim>
				</port>
			</input>
			<output>
				<port id="1">
					<dim>1</dim>
					<dim>20</dim>
					<dim>1024</dim>
					<dim>2048</dim>
				</port>
			</output>
		</layer>
		<layer id="162" name="ScaleShift/Rectify/Mul_" precision="FP32" type="ScaleShift">
			<input>
				<port id="0">
					<dim>1</dim>
					<dim>20</dim>
					<dim>1024</dim>
					<dim>2048</dim>
				</port>
			</input>
			<output>
				<port id="3">
					<dim>1</dim>
					<dim>20</dim>
					<dim>1024</dim>
					<dim>2048</dim>
				</port>
			</output>
			<blobs>
				<weights offset="26743400" size="80"/>
				<biases offset="26743480" size="80"/>
			</blobs>
		</layer>
		<layer id="163" name="argmax" precision="FP32" type="ArgMax">
			<data axis="1" out_max_val="0" top_k="1"/>
			<input>
				<port id="0">
					<dim>1</dim>
					<dim>20</dim>
					<dim>1024</dim>
					<dim>2048</dim>
				</port>
			</input>
			<output>
				<port id="1">
					<dim>1</dim>
					<dim>1</dim>
					<dim>1024</dim>
					<dim>2048</dim>
				</port>
			</output>
		</layer>
	</layers>
	<edges>
		<edge from-layer="0" from-port="0" to-layer="1" to-port="0"/>
		<edge from-layer="1" from-port="3" to-layer="2" to-port="0"/>
		<edge from-layer="2" from-port="1" to-layer="3" to-port="0"/>
		<edge from-layer="3" from-port="3" to-layer="4" to-port="0"/>
		<edge from-layer="4" from-port="1" to-layer="5" to-port="0"/>
		<edge from-layer="5" from-port="3" to-layer="6" to-port="0"/>
		<edge from-layer="6" from-port="1" to-layer="7" to-port="0"/>
		<edge from-layer="7" from-port="3" to-layer="8" to-port="0"/>
		<edge from-layer="8" from-port="1" to-layer="9" to-port="0"/>
		<edge from-layer="9" from-port="1" to-layer="10" to-port="0"/>
		<edge from-layer="10" from-port="3" to-layer="11" to-port="0"/>
		<edge from-layer="11" from-port="1" to-layer="12" to-port="0"/>
		<edge from-layer="12" from-port="3" to-layer="13" to-port="0"/>
		<edge from-layer="13" from-port="1" to-layer="14" to-port="0"/>
		<edge from-layer="9" from-port="1" to-layer="15" to-port="0"/>
		<edge from-layer="14" from-port="3" to-layer="16" to-port="0"/>
		<edge from-layer="15" from-port="3" to-layer="16" to-port="1"/>
		<edge from-layer="16" from-port="2" to-layer="17" to-port="0"/>
		<edge from-layer="17" from-port="1" to-layer="18" to-port="0"/>
		<edge from-layer="18" from-port="3" to-layer="19" to-port="0"/>
		<edge from-layer="19" from-port="1" to-layer="20" to-port="0"/>
		<edge from-layer="20" from-port="3" to-layer="21" to-port="0"/>
		<edge from-layer="21" from-port="1" to-layer="22" to-port="0"/>
		<edge from-layer="22" from-port="3" to-layer="23" to-port="0"/>
		<edge from-layer="17" from-port="1" to-layer="23" to-port="1"/>
		<edge from-layer="23" from-port="2" to-layer="24" to-port="0"/>
		<edge from-layer="24" from-port="1" to-layer="25" to-port="0"/>
		<edge from-layer="25" from-port="3" to-layer="26" to-port="0"/>
		<edge from-layer="26" from-port="1" to-layer="27" to-port="0"/>
		<edge from-layer="27" from-port="3" to-layer="28" to-port="0"/>
		<edge from-layer="28" from-port="1" to-layer="29" to-port="0"/>
		<edge from-layer="24" from-port="1" to-layer="30" to-port="0"/>
		<edge from-layer="29" from-port="3" to-layer="31" to-port="0"/>
		<edge from-layer="30" from-port="1" to-layer="31" to-port="1"/>
		<edge from-layer="31" from-port="2" to-layer="32" to-port="0"/>
		<edge from-layer="32" from-port="1" to-layer="33" to-port="0"/>
		<edge from-layer="33" from-port="3" to-layer="34" to-port="0"/>
		<edge from-layer="34" from-port="1" to-layer="35" to-port="0"/>
		<edge from-layer="35" from-port="3" to-layer="36" to-port="0"/>
		<edge from-layer="36" from-port="1" to-layer="37" to-port="0"/>
		<edge from-layer="32" from-port="1" to-layer="38" to-port="0"/>
		<edge from-layer="37" from-port="3" to-layer="39" to-port="0"/>
		<edge from-layer="38" from-port="3" to-layer="39" to-port="1"/>
		<edge from-layer="39" from-port="2" to-layer="40" to-port="0"/>
		<edge from-layer="40" from-port="1" to-layer="41" to-port="0"/>
		<edge from-layer="41" from-port="1" to-layer="42" to-port="0"/>
		<edge from-layer="42" from-port="3" to-layer="43" to-port="0"/>
		<edge from-layer="43" from-port="1" to-layer="44" to-port="0"/>
		<edge from-layer="44" from-port="3" to-layer="45" to-port="0"/>
		<edge from-layer="45" from-port="1" to-layer="46" to-port="0"/>
		<edge from-layer="46" from-port="3" to-layer="47" to-port="0"/>
		<edge from-layer="41" from-port="1" to-layer="47" to-port="1"/>
		<edge from-layer="47" from-port="2" to-layer="48" to-port="0"/>
		<edge from-layer="48" from-port="1" to-layer="49" to-port="0"/>
		<edge from-layer="49" from-port="3" to-layer="50" to-port="0"/>
		<edge from-layer="50" from-port="1" to-layer="51" to-port="0"/>
		<edge from-layer="51" from-port="3" to-layer="52" to-port="0"/>
		<edge from-layer="52" from-port="1" to-layer="53" to-port="0"/>
		<edge from-layer="53" from-port="3" to-layer="54" to-port="0"/>
		<edge from-layer="48" from-port="1" to-layer="54" to-port="1"/>
		<edge from-layer="54" from-port="2" to-layer="55" to-port="0"/>
		<edge from-layer="55" from-port="1" to-layer="56" to-port="0"/>
		<edge from-layer="56" from-port="3" to-layer="57" to-port="0"/>
		<edge from-layer="57" from-port="1" to-layer="58" to-port="0"/>
		<edge from-layer="58" from-port="3" to-layer="59" to-port="0"/>
		<edge from-layer="59" from-port="1" to-layer="60" to-port="0"/>
		<edge from-layer="60" from-port="3" to-layer="61" to-port="0"/>
		<edge from-layer="55" from-port="1" to-layer="61" to-port="1"/>
		<edge from-layer="61" from-port="2" to-layer="62" to-port="0"/>
		<edge from-layer="62" from-port="1" to-layer="63" to-port="0"/>
		<edge from-layer="63" from-port="3" to-layer="64" to-port="0"/>
		<edge from-layer="64" from-port="1" to-layer="65" to-port="0"/>
		<edge from-layer="65" from-port="3" to-layer="66" to-port="0"/>
		<edge from-layer="66" from-port="1" to-layer="67" to-port="0"/>
		<edge from-layer="62" from-port="1" to-layer="68" to-port="0"/>
		<edge from-layer="67" from-port="3" to-layer="69" to-port="0"/>
		<edge from-layer="68" from-port="3" to-layer="69" to-port="1"/>
		<edge from-layer="69" from-port="2" to-layer="70" to-port="0"/>
		<edge from-layer="70" from-port="1" to-layer="71" to-port="0"/>
		<edge from-layer="71" from-port="3" to-layer="72" to-port="0"/>
		<edge from-layer="72" from-port="1" to-layer="73" to-port="0"/>
		<edge from-layer="73" from-port="3" to-layer="74" to-port="0"/>
		<edge from-layer="74" from-port="1" to-layer="75" to-port="0"/>
		<edge from-layer="75" from-port="3" to-layer="76" to-port="0"/>
		<edge from-layer="70" from-port="1" to-layer="76" to-port="1"/>
		<edge from-layer="76" from-port="2" to-layer="77" to-port="0"/>
		<edge from-layer="77" from-port="1" to-layer="78" to-port="0"/>
		<edge from-layer="78" from-port="3" to-layer="79" to-port="0"/>
		<edge from-layer="79" from-port="1" to-layer="80" to-port="0"/>
		<edge from-layer="80" from-port="3" to-layer="81" to-port="0"/>
		<edge from-layer="81" from-port="1" to-layer="82" to-port="0"/>
		<edge from-layer="82" from-port="3" to-layer="83" to-port="0"/>
		<edge from-layer="77" from-port="1" to-layer="83" to-port="1"/>
		<edge from-layer="83" from-port="2" to-layer="84" to-port="0"/>
		<edge from-layer="84" from-port="1" to-layer="85" to-port="0"/>
		<edge from-layer="85" from-port="3" to-layer="86" to-port="0"/>
		<edge from-layer="86" from-port="1" to-layer="87" to-port="0"/>
		<edge from-layer="87" from-port="3" to-layer="88" to-port="0"/>
		<edge from-layer="88" from-port="1" to-layer="89" to-port="0"/>
		<edge from-layer="89" from-port="3" to-layer="90" to-port="0"/>
		<edge from-layer="84" from-port="1" to-layer="90" to-port="1"/>
		<edge from-layer="90" from-port="2" to-layer="91" to-port="0"/>
		<edge from-layer="91" from-port="1" to-layer="92" to-port="0"/>
		<edge from-layer="92" from-port="3" to-layer="93" to-port="0"/>
		<edge from-layer="93" from-port="1" to-layer="94" to-port="0"/>
		<edge from-layer="94" from-port="3" to-layer="95" to-port="0"/>
		<edge from-layer="95" from-port="1" to-layer="96" to-port="0"/>
		<edge from-layer="96" from-port="3" to-layer="97" to-port="0"/>
		<edge from-layer="91" from-port="1" to-layer="97" to-port="1"/>
		<edge from-layer="97" from-port="2" to-layer="98" to-port="0"/>
		<edge from-layer="98" from-port="1" to-layer="99" to-port="0"/>
		<edge from-layer="99" from-port="3" to-layer="100" to-port="0"/>
		<edge from-layer="100" from-port="1" to-layer="101" to-port="0"/>
		<edge from-layer="101" from-port="3" to-layer="102" to-port="0"/>
		<edge from-layer="102" from-port="1" to-layer="103" to-port="0"/>
		<edge from-layer="103" from-port="3" to-layer="104" to-port="0"/>
		<edge from-layer="98" from-port="1" to-layer="104" to-port="1"/>
		<edge from-layer="104" from-port="2" to-layer="105" to-port="0"/>
		<edge from-layer="105" from-port="1" to-layer="106" to-port="0"/>
		<edge from-layer="106" from-port="3" to-layer="107" to-port="0"/>
		<edge from-layer="107" from-port="1" to-layer="108" to-port="0"/>
		<edge from-layer="108" from-port="3" to-layer="109" to-port="0"/>
		<edge from-layer="109" from-port="1" to-layer="110" to-port="0"/>
		<edge from-layer="105" from-port="1" to-layer="111" to-port="0"/>
		<edge from-layer="110" from-port="3" to-layer="112" to-port="0"/>
		<edge from-layer="111" from-port="3" to-layer="112" to-port="1"/>
		<edge from-layer="112" from-port="2" to-layer="113" to-port="0"/>
		<edge from-layer="113" from-port="1" to-layer="114" to-port="0"/>
		<edge from-layer="114" from-port="3" to-layer="115" to-port="0"/>
		<edge from-layer="115" from-port="1" to-layer="116" to-port="0"/>
		<edge from-layer="116" from-port="3" to-layer="117" to-port="0"/>
		<edge from-layer="117" from-port="1" to-layer="118" to-port="0"/>
		<edge from-layer="118" from-port="3" to-layer="119" to-port="0"/>
		<edge from-layer="113" from-port="1" to-layer="119" to-port="1"/>
		<edge from-layer="119" from-port="2" to-layer="120" to-port="0"/>
		<edge from-layer="120" from-port="1" to-layer="121" to-port="0"/>
		<edge from-layer="121" from-port="3" to-layer="122" to-port="0"/>
		<edge from-layer="122" from-port="1" to-layer="123" to-port="0"/>
		<edge from-layer="123" from-port="3" to-layer="124" to-port="0"/>
		<edge from-layer="124" from-port="1" to-layer="125" to-port="0"/>
		<edge from-layer="125" from-port="3" to-layer="126" to-port="0"/>
		<edge from-layer="120" from-port="1" to-layer="126" to-port="1"/>
		<edge from-layer="126" from-port="2" to-layer="127" to-port="0"/>
		<edge from-layer="127" from-port="1" to-layer="128" to-port="0"/>
		<edge from-layer="128" from-port="1" to-layer="129" to-port="0"/>
		<edge from-layer="127" from-port="1" to-layer="130" to-port="0"/>
		<edge from-layer="129" from-port="1" to-layer="130" to-port="1"/>
		<edge from-layer="127" from-port="1" to-layer="131" to-port="0"/>
		<edge from-layer="131" from-port="1" to-layer="132" to-port="0"/>
		<edge from-layer="130" from-port="2" to-layer="133" to-port="0"/>
		<edge from-layer="132" from-port="1" to-layer="133" to-port="1"/>
		<edge from-layer="127" from-port="1" to-layer="134" to-port="0"/>
		<edge from-layer="134" from-port="1" to-layer="135" to-port="0"/>
		<edge from-layer="133" from-port="2" to-layer="136" to-port="0"/>
		<edge from-layer="135" from-port="1" to-layer="136" to-port="1"/>
		<edge from-layer="127" from-port="1" to-layer="137" to-port="0"/>
		<edge from-layer="137" from-port="1" to-layer="138" to-port="0"/>
		<edge from-layer="136" from-port="2" to-layer="139" to-port="0"/>
		<edge from-layer="138" from-port="1" to-layer="139" to-port="1"/>
		<edge from-layer="139" from-port="2" to-layer="140" to-port="0"/>
		<edge from-layer="140" from-port="3" to-layer="141" to-port="0"/>
		<edge from-layer="141" from-port="1" to-layer="142" to-port="0"/>
		<edge from-layer="142" from-port="1" to-layer="143" to-port="0"/>
		<edge from-layer="40" from-port="1" to-layer="144" to-port="0"/>
		<edge from-layer="143" from-port="3" to-layer="145" to-port="0"/>
		<edge from-layer="144" from-port="3" to-layer="145" to-port="1"/>
		<edge from-layer="145" from-port="2" to-layer="146" to-port="0"/>
		<edge from-layer="146" from-port="1" to-layer="147" to-port="0"/>
		<edge from-layer="147" from-port="1" to-layer="148" to-port="0"/>
		<edge from-layer="1" from-port="3" to-layer="149" to-port="0"/>
		<edge from-layer="149" from-port="3" to-layer="150" to-port="0"/>
		<edge from-layer="150" from-port="1" to-layer="151" to-port="0"/>
		<edge from-layer="151" from-port="3" to-layer="152" to-port="0"/>
		<edge from-layer="152" from-port="1" to-layer="153" to-port="0"/>
		<edge from-layer="153" from-port="3" to-layer="154" to-port="0"/>
		<edge from-layer="154" from-port="1" to-layer="155" to-port="0"/>
		<edge from-layer="148" from-port="3" to-layer="156" to-port="0"/>
		<edge from-layer="155" from-port="3" to-layer="156" to-port="1"/>
		<edge from-layer="156" from-port="2" to-layer="157" to-port="0"/>
		<edge from-layer="157" from-port="1" to-layer="158" to-port="0"/>
		<edge from-layer="158" from-port="1" to-layer="159" to-port="0"/>
		<edge from-layer="159" from-port="3" to-layer="160" to-port="0"/>
		<edge from-layer="160" from-port="1" to-layer="161" to-port="0"/>
		<edge from-layer="161" from-port="1" to-layer="162" to-port="0"/>
		<edge from-layer="162" from-port="3" to-layer="163" to-port="0"/>
	</edges>
	<meta_data>
		<MO_version value="2019.3.0-227-g3a4f9de20"/>
		<cli_parameters>
			<blobs_as_inputs value="False"/>
			<caffe_parser_path value="DIR"/>
			<data_type value="FP32"/>
			<disable_nhwc_to_nchw value="False"/>
			<disable_omitting_optional value="False"/>
			<disable_resnet_optimization value="False"/>
			<enable_concat_optimization value="False"/>
			<enable_flattening_nested_params value="False"/>
			<enable_ssd_gluoncv value="False"/>
			<extensions value="DIR"/>
			<framework value="caffe"/>
			<freeze_placeholder_with_value value="{}"/>
			<generate_experimental_IR_V10 value="False"/>
			<input value="data"/>
			<input_model value="DIR/model.caffemodel"/>
			<input_model_is_text value="False"/>
			<input_proto value="DIR/model.prototxt"/>
			<input_shape value="[1,3,1024,2048]"/>
			<k value="DIR/CustomLayersMapping.xml"/>
			<keep_quantize_ops_in_IR value="False"/>
			<keep_shape_ops value="False"/>
			<legacy_mxnet_model value="False"/>
			<log_level value="ERROR"/>
			<mean_scale_values value="{}"/>
			<mean_values value="()"/>
			<model_name value="semantic-segmentation-adas-0001"/>
			<move_to_preprocess value="False"/>
			<output value="['argmax']"/>
			<output_dir value="DIR"/>
			<placeholder_shapes value="{'data': array([   1,    3, 1024, 2048])}"/>
			<remove_memory value="False"/>
			<remove_output_softmax value="False"/>
			<reverse_input_channels value="False"/>
			<save_params_from_nd value="False"/>
			<scale_values value="()"/>
			<silent value="False"/>
			<steps value="False"/>
			<version value="False"/>
			<unset unset_cli_parameters="batch, counts, disable_fusing, disable_gfusing, finegrain_fusing, generate_deprecated_IR_V2, input_checkpoint, input_meta_graph, input_symbol, mean_file, mean_file_offsets, nd_prefix_name, pretrained_model_name, saved_model_dir, saved_model_tags, scale, tensorboard_logdir, tensorflow_custom_layer_libraries, tensorflow_custom_operations_config_update, tensorflow_object_detection_api_pipeline_config, tensorflow_operation_patterns, tensorflow_subgraph_patterns, tensorflow_use_custom_operations_config"/>
		</cli_parameters>
	</meta_data>
</net>
